checkpoint_actor.pth (torch, 170795 bytes, 6 tensors)

layer_1.weight f4 [256, 33]
000000 05 aa d9 3e 42 5f 81 bd 38 4a 0a bf 13 8e cb 3e
       0.42512527 -0.06316997 -0.540195 0.39756832
000010 de ae d4 3f ba 81 ff be ca 25 52 3f 72 98 58 3e
       1.6615865 -0.4990366 0.8208891 0.21151903
000020 6d b0 09 be fe 26 13 3d 19 d0 0c bd eb 8b 3d bd
       -0.13446207 0.035925858 -0.034378145 -0.046276014
000030 d1 95 1e 3d 99 7e f3 be 5d 96 83 3e fd 37 ad 3e
       0.038717095 -0.47557524 0.25700656 0.33831778
000040 c8 0c 83 3e 11 63 90 bf 00 6d 3e c0 d3 0e 1d 3f
       0.2559569 -1.1280233 -2.9754028 0.61350745
000050 1e c9 f4 3c 08 27 cb be 19 ac 81 be 87 f9 95 be
       0.029881056 -0.39678216 -0.25326613 -0.29291937
000060 4c 9a b7 bd 9c cc 6d bc 99 fe e6 3e 4a d1 51 3e
       -0.08964977 -0.014514115 0.45116118 0.20489994
000070 44 ba f9 bd 2c 0f 30 be ca 03 1c be 2c 6c 17 be
       -0.121937305 -0.17193288 -0.1523582 -0.14787358
000080 93 05 8f 3f f7 c0 d1 3e 83 47 00 bd 8f e4 3b 3f
       1.1173576 0.40967533 -0.0313182 0.7339563
000090 31 c5 8d bd 2b b6 2a 3e 0a 0a ee be 43 9e ed bd
       -0.06922377 0.16671054 -0.46492034 -0.11602452
0000a0 4e c4 e4 be 8f 97 1f bf 13 a1 07 3d 83 dd 33 3e
       -0.4468102 -0.62340635 0.033112597 0.17564969
0000b0 17 b6 89 3e 73 91 3f bd d1 09 6f be ec a9 08 3b
       0.26896736 -0.04676957 -0.23343588 0.0020853234
0000c0 57 47 2c 3f 21 ae b2 bf 05 70 13 3f 1b 31 cd 3d
       0.67296356 -1.395939 0.57592803 0.10019132
0000d0 d4 a2 de be 9f 9e b5 3d c1 1e ae 3e 8b 49 f6 bd
       -0.43483603 0.08868145 0.34007838 -0.12025746
0000e0 f0 aa 91 3e 5e 94 fd 3c 13 cc 25 bc 28 b8 f0 bc
       0.28450727 0.030954536 -0.010119456 -0.029384688
0000f0 25 52 ba 3e 48 99 31 bf 9c dc 5b 3d 34 67 d3 be
       0.36390796 -0.69374514 0.053677186 -0.41289675
000100 48 7b 5a 3d 36 ca 90 3f f6 d6 c3 3e 01 79 30 3f
       0.053340226 1.131171 0.3824994 0.6893464
000110 bb 85 0f 3f 78 5d 87 3c 17 6a 4e 3f 10 ec 85 3f
       0.5606343 0.016524062 0.8063063 1.0462666
000120 a8 08 e5 3d e4 bb 30 3f f4 5e 84 3e 62 ab 2e bf
       0.11183292 0.690367 0.25853693 -0.6823026
000130 02 4b c9 bd 47 5e 54 be 16 61 76 3e f7 a7 99 be
       -0.0982876 -0.20739089 0.24060473 -0.3001096
000140 97 9e 48 be 16 59 99 be bc 75 c8 3f 74 d5 d8 bf
       -0.19591747 -0.2995078 1.566093 -1.6940141
000150 d1 ad 22 3f 73 e4 96 3f 3c 1c 99 3e 6c 9c 78 bc
       0.6354647 1.1788467 0.29904354 -0.015174013
000160 f0 89 78 3e 44 e7 f6 3c 86 3b 56 3d b1 68 88 bd
       0.24271369 0.030139573 0.05230286 -0.06660593
000170 b8 f6 27 3d 69 1e 43 3f f0 70 7c be 75 54 be bd
       0.041006774 0.7621828 -0.24652457 -0.09293453
000180 b6 09 f8 be ca 98 70 bd 00 dc c6 3f ff 97 21 bf
       -0.4844491 -0.05873946 1.5535889 -0.6312255
000190 dc 80 45 3d a6 2e a3 3d 34 b6 32 bf 60 06 a7 bf
       0.048218593 0.07967882 -0.6980927 -1.304882
0001a0 44 e6 06 40 79 c9 c7 be 74 10 4a bd eb 26 98 3e
       2.1078043 -0.390209 -0.049332097 0.29717192
0001b0 89 e8 b1 be 52 0a 06 3e 2c 85 10 bd b7 96 62 3d
       -0.34747723 0.13089874 -0.035283253 0.055319514
0001c0 d1 a0 04 3f bf e1 25 be 2c 89 c9 3e 91 fc 03 c0
       0.51807886 -0.16199397 0.39362466 -2.0622904
0001d0 c2 8c ae 3e ad a7 ea bf 8a 29 ef be 02 38 99 bd
       0.34091765 -1.833242 -0.4671138 -0.07481386
0001e0 97 40 d4 bd 33 a8 4e be 25 68 b2 3d 4e 68 8a bd
       -0.10363882 -0.2018135 0.0871127 -0.06758176
0001f0 ae fb 28 3e 15 d3 55 be cd 84 83 3e 5e 60 62 be
       0.16502258 -0.20881303 0.25687256 -0.22107074
000200 3e 76 15 3e 06 b7 b3 be d8 5e 19 3e 45 1a a7 bf
       0.14595887 -0.35100573 0.14977586 -1.3054892
000210 11 de 8e 3d 91 04 a6 be 29 3e 93 3e cf ca d4 be
       0.069759496 -0.3242536 0.28758362 -0.4156098
000220 de 39 b9 bf 42 86 0f 3f ba c3 b7 be 9b 78 3b 3d
       -1.4470785 0.56064236 -0.35891515 0.045769315
000230 7c 37 19 3d ac fc b3 be d8 56 15 3e ed 54 84 bd
       0.03740643 -0.3515371 0.1458391 -0.06461511
000240 2c 84 3f be 6a 11 55 3e 91 9f 12 3f f1 fe 31 3e
       -0.18702763 0.20807424 0.5727473 0.17382409
000250 e4 d5 04 40 7e cd 9f 3f cd 4b 0d 3e 04 b8 5c 3f
       2.0755548 1.2484586 0.13798447 0.86218286
000260 eb bb 50 be 5e 47 79 3e cf 79 23 be b5 67 f9 3d
       -0.20384185 0.2434363 -0.15964435 0.12177984
000270 ae 00 95 3d cd 6c 4e be b2 94 10 3e cc d6 4c 3e
       0.0727552 -0.20158692 0.14119223 0.20003814
000280 0c 37 83 3e d9 af 1c 3d f6 23 8b be aa 16 1d be
       0.25627935 0.03825364 -0.27175874 -0.15340677
000290 11 60 01 40 cc 4b d2 3e c9 da 96 3e 6e 3c 2e 3d
       2.0214884 0.41073453 0.29463795 0.0425381
0002a0 b6 2f b2 3d bf 7a 0c bf 38 63 d4 3e d6 2d 43 3f
       0.087005064 -0.54874796 0.41481948 0.76241815
0002b0 26 84 8b 3e 85 39 0b 3f 21 3c b9 3e dc 79 66 bd
       0.2724926 0.5438464 0.36178687 -0.056268558
0002c0 0a d7 91 3e 6d 1c 4c 3e 32 4a 1f 3c 16 ca ba be
       0.28484374 0.19932719 0.009722279 -0.36482304
0002d0 07 85 f8 3e 4e d5 56 bf 74 1a 9e be 30 57 f5 bf
       0.48538992 -0.8391923 -0.30879557 -1.9167233
0002e0 dd af 08 3f 4d 47 a2 3e b2 83 91 3e 6a 1a b8 be
       0.53393346 0.31695023 0.28420788 -0.35957652
0002f0 03 30 6f bd 10 2c 13 3e 58 89 96 3d 8d cc 87 be
       -0.058395397 0.14372277 0.07350415 -0.26523247
000300 7b 44 90 3f bb 2b 0a 3d b0 2c 8d bc 48 03 87 bf
       1.1270899 0.03373311 -0.017233223 -1.0547876
000310 40 79 26 3b 30 41 b3 3f d2 51 1f 3e 35 4b 9c 3e
       0.002540186 1.4004269 0.15558556 0.30526128
000320 f0 10 85 3e 61 dc a9 bf d8 59 58 3e 3f 1c e5 be
       0.25989485 -1.3270379 0.21128023 -0.44748113
000330 34 41 68 3f 68 02 0c bd cb 26 81 3e c9 11 02 3e
       0.9072449 -0.034181982 0.2522491 0.12702097
000340 2a bc d1 be 2b e5 aa bd 44 2c d3 3e eb 63 8b 3e
       -0.4096387 -0.083444916 0.4124471 0.2722467
000350 6f aa 25 be da 34 79 be 94 4e 95 3f 3d a0 f0 3f
       -0.16178297 -0.24336568 1.1664605 1.8798901
000360 5b 24 fe bf ff 95 d6 3d d3 b3 e7 3e 28 46 95 be
       -1.9854845 0.10477828 0.45254382 -0.29155087
000370 88 d8 f4 3e 9a b5 81 be 77 75 9d 3d 32 8c 74 3e
       0.4782145 -0.25333863 0.0768842 0.23881605
000380 8a d0 12 3d cd bd 65 3f f1 8f 48 3e 08 ee 81 3d
       0.03584341 0.8974274 0.1958616 0.06344229
000390 52 fd 66 bf b1 ed 2f be ed 7a b2 be 9b ec 2d 3f
       -0.90230286 -0.17180516 -0.3485941 0.67939156
0003a0 e8 cc 06 3f 46 6d c6 3e b4 9c 8b 3c b4 a5 6c 3e
       0.5265641 0.38755244 0.017042495 0.23110086
0003b0 ad d4 fb 3f 0c fd 09 bf e9 b0 84 be f0 8f 3c bf
       1.9674278 -0.53901744 -0.25916222 -0.7365713
0003c0 39 2d 67 3d 00 b0 85 3d 20 f6 69 3d 68 db 27 be
       0.056439612 0.0652771 0.05711949 -0.1639229
0003d0 00 3d 18 be ff 6e d0 3e c0 00 a7 be 99 23 5f bf
       -0.1486702 0.40709683 -0.3261776 -0.8716369
0003e0 6d 9b 81 3f db 4e 94 bd de b0 3b be ab f7 08 be
       1.0125557 -0.07241603 -0.18329188 -0.13375728
0003f0 e6 0a 24 bf ae 7b f7 bd f2 9c 4b be 63 d6 d9 bc
       -0.6407913 -0.12084137 -0.19884089 -0.026591485

layer_1.bias f4 [256]
000000 7e 7a c5 be 6d 9a 8a be 69 cb fb be ba 92 63 be
       -0.38570017 -0.27070943 -0.49178627 -0.2222394
000010 94 66 a9 be d6 84 93 bf ff b5 6c bf bf f3 1d bf
       -0.33086073 -1.1524913 -0.92465204 -0.6170005
000020 c9 84 ed be 65 a0 05 bf e1 c8 d2 be dc 6f 4a bf
       -0.4639037 -0.5219787 -0.41168883 -0.79076934
000030 bd 1b c0 be ea f3 a2 be 24 f7 a4 bf f7 68 85 bf
       -0.37521163 -0.31826717 -1.2887921 -1.0422658
000040 12 4d 82 bf 3c 74 50 bf 8e 4c ec be 14 47 08 bf
       -1.017977 -0.8142736 -0.46152157 -0.53233457
000050 27 09 19 bf b1 63 9d be 8a ef c1 be 76 78 2b bf
       -0.5977959 -0.3074012 -0.37878066 -0.66980684
000060 f9 30 04 bf 22 c6 3c bf 38 d3 6b bf 26 cd 18 bf
       -0.51637226 -0.73739827 -0.9211917 -0.5968803
000070 9f 26 09 bf 46 ee 12 bf f6 38 01 bf dc 9e f4 be
       -0.53574556 -0.57394826 -0.5047754 -0.4777745
000080 da 3e af bd 2d 7b c4 be 6e e0 40 bf c4 3c 4b bf
       -0.0855691 -0.38375226 -0.7534245 -0.79389596
000090 c4 47 3b bf af 3f 6b bf e2 0e 89 be 8c 23 64 bf
       -0.7315638 -0.9189405 -0.26769167 -0.8911674
0000a0 08 03 d1 bd f2 5d b7 bd 41 f0 f5 be d4 6e a0 be
       -0.10205656 -0.089534655 -0.48034862 -0.31334555
0000b0 84 3b 53 bf db dc 32 bf 73 f9 26 3e 2b 51 58 be
       -0.8251269 -0.6986825 0.16306095 -0.21124713
0000c0 4d c0 f4 be d9 de c0 be eb 4f 0f bf 74 8f 74 bf
       -0.47802964 -0.3767002 -0.5598132 -0.9553139
0000d0 67 f4 23 bf 21 4b 64 be a4 fb 10 bf 70 f3 2d bf
       -0.64044803 -0.22294284 -0.56633973 -0.6794958
0000e0 93 b2 2f bf 8f 27 23 bf 80 f3 54 bf 67 0b 7b be
       -0.6863186 -0.63732237 -0.8318405 -0.24516068
0000f0 61 27 08 bf 15 2e b3 bd e8 28 a3 be 82 af fc be
       -0.5318509 -0.08749024 -0.31867146 -0.49352652
000100 20 ae 22 bf 38 75 30 bf af c6 3c be 54 c9 31 bf
       -0.63546944 -0.6892886 -0.18435167 -0.6944783
000110 cc 01 8b bf 74 35 c2 be 56 6a cc be 0f 35 62 bf
       -1.0859923 -0.37931406 -0.39924878 -0.8836221
000120 d5 40 46 bf 65 c3 2b bf d3 af 56 bf 67 d3 05 bf
       -0.77442676 -0.67095023 -0.83862036 -0.522757
000130 bb 17 30 bf 4f 05 10 bf a3 7c 1b bf 2d 69 34 bf
       -0.6878621 -0.562581 -0.60737056 -0.70472986
000140 c6 43 b0 be c3 e1 35 bf 8e d7 db be c8 18 a7 bf
       -0.34426707 -0.7104761 -0.42937893 -1.3054438
000150 10 4f 41 bf 99 83 89 bf e6 83 3b be 7e 19 a9 be
       -0.75511265 -1.0743285 -0.18312034 -0.33027261
000160 4e e9 d1 be dc 74 b9 be e1 ce 8e be 7d 35 59 bf
       -0.4099831 -0.3622197 -0.2789221 -0.8484724
000170 a4 66 08 bf 19 05 50 bf 98 f0 20 bf 76 96 0c bf
       -0.5328162 -0.8125778 -0.62867117 -0.54917085
000180 02 aa 9f bd 09 ad 19 bf 9b 26 d9 be 52 b0 35 bf
       -0.07796098 -0.60029656 -0.42412266 -0.7097217
000190 8b d5 02 bf 6e 42 58 bf 37 ef aa bd 1c e0 b4 be
       -0.5110709 -0.84476364 -0.08346408 -0.35327232
0001a0 c2 2b c5 be 95 ba 8e be c3 1a ae be 69 b1 2b bf
       -0.38509947 -0.27876726 -0.34004793 -0.6706758
0001b0 6b 00 11 be f7 1e 3e bf 00 db ef be eb a2 8d be
       -0.14160316 -0.74266 -0.4684677 -0.2766336
0001c0 66 da 77 be 31 f5 63 bf 15 d5 38 bf 69 c2 15 3e
       -0.24204406 -0.8904601 -0.7220014 0.14624943
0001d0 ea f9 96 bf c3 26 45 be f3 78 a7 be 0b 52 10 bf
       -1.1795018 -0.19253068 -0.32709464 -0.5637519
0001e0 19 67 6e bf 03 3f 55 be a3 19 0e be 5a 0a 6a bf
       -0.93126065 -0.20824818 -0.13876967 -0.91422045
0001f0 89 6f 25 bf 86 80 9b be 0d 76 6b be a2 ce 1f bf
       -0.64623314 -0.30371493 -0.22994252 -0.6242467
000200 a8 91 c4 bc 07 ff 26 bf 9b 03 c0 be 12 04 d4 be
       -0.023995236 -0.6523289 -0.3750275 -0.41409355
000210 53 51 40 bf 31 c2 1f bf fa be f5 be 40 fa e2 be
       -0.7512409 -0.6240569 -0.47997266 -0.4433155
000220 72 d4 3c bf a3 a2 84 be f0 1c ac be 94 2a c4 3c
       -0.73761666 -0.25905332 -0.33615828 0.023946084
000230 a8 a7 e9 be a2 d7 19 bf 2b b8 f5 be 11 56 8b be
       -0.45635724 -0.60094655 -0.47992072 -0.272141
000240 18 92 a0 be fa 7e cd be db f1 aa be 44 ad 49 bf
       -0.3136146 -0.40135938 -0.33387646 -0.7878001
000250 cb 52 40 3d bf 84 1d bf 7b 6f 0f bf 8b af 01 bf
       0.046953958 -0.6153068 -0.5602948 -0.5065848
000260 3b aa 00 be 97 1c 27 bf 77 81 12 be 18 f4 b4 be
       -0.12564938 -0.65278 -0.143072 -0.3534248
000270 3d 33 3f bf d3 7f fc be f0 73 34 bf 93 25 92 be
       -0.7468756 -0.49316272 -0.70489407 -0.28544292
000280 23 88 e0 be d8 00 4e bf 95 6a 5c bf 8e a4 04 bf
       -0.43853864 -0.8047004 -0.8610013 -0.5181359
000290 a4 66 52 bf 4e 40 ce be df 8d 2c bf 87 05 15 bf
       -0.8218787 -0.40283436 -0.6740398 -0.5821156
0002a0 ed 43 09 bf d9 5d 23 bf 6e 46 f7 bd 74 b0 48 be
       -0.5361927 -0.63815075 -0.1207398 -0.19598562
0002b0 fd 8d 83 be c9 9e fc be 87 42 30 bf f1 5c e5 be
       -0.25694266 -0.49339893 -0.6885151 -0.4479747
0002c0 ae 2f fa be 43 6e 17 bf fa 9c 97 bf 21 d0 c9 be
       -0.48864502 -0.5915262 -1.184478 -0.39416602
0002d0 f7 6a e9 be 39 cb 05 bf 3a 28 0b bf 25 b2 7a bf
       -0.4558942 -0.5226322 -0.54358256 -0.97928077
0002e0 8f 93 f9 be 31 50 dd be 5f 4b 3d bf 43 ae 05 bf
       -0.4874539 -0.43225244 -0.7394313 -0.5221903
0002f0 41 a2 cd be 40 50 ac be e4 81 1f bf 53 37 21 bf
       -0.40162852 -0.33654976 -0.6230757 -0.62975043
000300 73 57 8b bf 10 92 34 be ed 76 f2 be 39 e8 28 bf
       -1.0886062 -0.17633843 -0.47356358 -0.65979344
000310 ed 60 99 be 88 97 31 bf de fb cd be 0f 3b a2 be
       -0.2995676 -0.69371843 -0.40231222 -0.31685683
000320 ef dd 9a be 75 ea 67 bf d8 30 69 be 84 b7 50 bf
       -0.30247447 -0.9059213 -0.22772539 -0.8153002
000330 b4 d0 65 bf a2 8f 4e be 4a e9 2f bf df cb 23 bf
       -0.8977158 -0.20171979 -0.68715346 -0.6398296
000340 a0 af 2f bf 31 56 46 bf d1 32 47 bf cd 05 90 bf
       -0.6862736 -0.7747527 -0.77811915 -1.125177
000350 f0 61 54 be 4c fa 3e bf a0 8e c3 be bd b6 66 bf
       -0.20740485 -0.7460067 -0.38194752 -0.90122586
000360 be 44 4e bf e3 cd 0b bf 15 4e 0e bf 64 19 e3 be
       -0.8057364 -0.54611033 -0.55587894 -0.4435531
000370 dc 8b 8a be a6 20 16 bf f7 d5 00 bf b6 1c db be
       -0.2705983 -0.5864357 -0.50326484 -0.42795342
000380 07 b5 1d bf c6 8b 03 bf b7 8f ef be 13 39 2e bf
       -0.6160435 -0.5138515 -0.46789333 -0.6805584
000390 a4 68 70 be ce 0e 83 3d e5 11 79 bf d3 5a 06 bf
       -0.23477417 0.06399308 -0.9729293 -0.52482337
0003a0 e7 68 6d bf 72 58 bb be 73 66 ad be 01 93 62 bf
       -0.92738193 -0.36590916 -0.33867225 -0.8850556
0003b0 fa 0c 47 bf 4f 70 19 be 20 54 3f bf bd 9a 70 bf
       -0.77754176 -0.14984249 -0.7473774 -0.9398611
0003c0 e9 9e 3b bf 2d 09 f0 be fe 18 d5 be 1b 0b 10 bf
       -0.7328935 -0.46882 -0.4162063 -0.56266946
0003d0 f0 6e 04 bf a8 ac 01 bf 72 8c 83 3d 8a b6 4c bf
       -0.5173178 -0.5065408 0.06423272 -0.7996603
0003e0 06 01 3f bf 19 4e 03 bf 79 df 3a bf bb da 2e bf
       -0.74610937 -0.5129104 -0.7299724 -0.68302506
0003f0 4e c4 0c be c6 48 5e bf 79 49 6a bd 53 8b 23 bf
       -0.1374676 -0.86829793 -0.057198975 -0.63884467

layer_2.weight f4 [128, 256]
000000 ec b3 a9 bd 90 4f 12 bd b7 74 67 bd d7 61 d4 3b
       -0.082862705 -0.035720408 -0.056507792 0.00648139
000010 e4 77 17 bd f9 96 8a bd 52 7f 28 3c ed 48 ed bc
       -0.03697957 -0.06767077 0.010284262 -0.028965438
000020 43 58 28 bd 73 77 8c bd 1b d9 8c bd e2 40 c4 bc
       -0.041099798 -0.06858721 -0.06877347 -0.02395672
000030 83 2c 03 bd e5 66 21 bd 35 da 04 bd 8d 90 c7 3c
       -0.03202487 -0.03940477 -0.03243466 0.02436092
000040 42 47 32 bd 33 ae a8 bd 6e 1f 54 3c fb 0e 5a 3b
       -0.043524988 -0.08236351 0.012946947 0.003327309
000050 3d d8 3d bd ba 44 a8 bc 33 6a 50 3d 3a c3 d6 bc
       -0.0463488 -0.020540584 0.05088253 -0.026216138
000060 5e d5 99 bd c9 93 93 bd 05 0b be bc 4e a3 22 bd
       -0.075114 -0.07205922 -0.023198614 -0.03970652
000070 0f 96 e6 bc fc 57 aa bd 2d 12 51 bd 24 fa 7f bd
       -0.028147725 -0.08317563 -0.051042724 -0.062494412
000080 77 16 c0 bb c3 96 a8 bb f4 23 6c bd 0d be d1 bd
       -0.005862053 -0.0051449253 -0.057651475 -0.102413274
000090 b0 70 2f 3c 13 d9 7e 3c 26 04 f0 3a 5d fd 84 bd
       0.010708019 0.015554684 0.0018311783 -0.06493638
0000a0 dd 1b 6e bd 09 8c af bc b7 89 87 bc c2 92 fe 3c
       -0.05813204 -0.021429079 -0.01654516 0.031075839
0000b0 8f 44 9b 3c 39 44 01 3d 24 09 a1 bb 0c 63 3d bd
       0.01895359 0.031559203 -0.0049144197 -0.046237037
0000c0 c3 18 a1 3c 64 bc 16 bd 2c c7 ab 39 99 5d 3a 3c
       0.019665128 -0.036800757 0.00032764056 0.0113748545
0000d0 ac 83 33 bd 83 a3 04 bd a9 8a 39 bc 0c 34 85 3c
       -0.043826744 -0.0323825 -0.011324563 0.01626017
0000e0 6a 86 9f 3c 05 21 2c 3c fa 87 69 bd ae f9 2d 3b
       0.019473273 0.010505919 -0.057014443 0.0026546526
0000f0 3d 22 dc 3c dd 3b 85 bd cb f9 9e 3c e6 99 ca 3b
       0.026871795 -0.06505559 0.01940622 0.006182897
000100 d8 a6 7a bc 40 19 01 3c 49 cc 14 3c 2f 3e ad bd
       -0.015298568 0.007879555 0.0090819085 -0.08459126
000110 db 8c 29 3c 39 a5 94 bd e0 97 e7 bc 85 ed 22 3c
       0.010348524 -0.07258076 -0.028270662 0.009944324
000120 23 ae 8c bd 00 f5 88 bd 2b 00 0d bd 5f 57 92 bc
       -0.068691514 -0.06687355 -0.03442399 -0.017863927
000130 94 17 7f bc 52 0f 74 bd 71 8e 01 3c 7d a3 f6 bc
       -0.015569586 -0.059584923 0.007907496 -0.030107254
000140 97 c5 53 bd ec c0 f5 bc ca ff 1d bb 46 78 86 bb
       -0.05170211 -0.029999219 -0.002410876 -0.004103693
000150 db 2b 96 bd be 42 9a 3b b5 1f d2 3b a6 4e 6e bd
       -0.073325835 0.0047076633 0.006412471 -0.058180474
000160 65 83 35 3d 0c a1 16 bd a4 63 0e 3c af ee 36 3d
       0.04431476 -0.03677468 0.008690748 0.04466122
000170 bc ef d9 bc 1c ad 77 3c c2 a9 f3 bb f5 ae 06 3d
       -0.026603572 0.015116956 -0.007436008 0.032881696
000180 fd 7e 0e bd 83 17 63 3c 48 68 de 3c 72 29 44 bd
       -0.034789074 0.013860586 0.027149335 -0.047891088
000190 3f cb 38 3d f2 94 a7 bc 5b 7b 0c bc e9 66 68 bd
       0.045115706 -0.020456765 -0.008574332 -0.056738768
0001a0 e3 4b 3b bd 9f 0a 08 bd 4a ce 69 bd 4e ae 19 b9
       -0.045726668 -0.033213254 -0.0570815 -0.0001465615
0001b0 5d ca 22 3d 7c c3 8d bd d2 24 3b bc c5 46 d2 3a
       0.03974377 -0.06922051 -0.011422353 0.001604282
0001c0 ed 64 da bc c6 e5 3e bd 29 73 9d bd e1 ab 80 bd
       -0.026659453 -0.046605848 -0.07687981 -0.06282783
0001d0 6e f6 1a 3a 67 34 66 bd 83 4a 45 bd ab fb bb bc
       0.00059113547 -0.05620232 -0.048166763 -0.022947153
0001e0 50 14 25 bb 53 3b 50 bd 3e 76 23 bd a1 dc 9d bb
       -0.002518911 -0.050837826 -0.039907686 -0.004817561
0001f0 11 6c a6 bd fe ac bf bd 06 f4 48 bd 66 23 f0 3c
       -0.08126081 -0.093591675 -0.049060844 0.029313754
000200 8f 1d 37 bd f9 98 5f bd 30 75 00 bd 22 48 01 bd
       -0.044705924 -0.054589245 -0.03136176 -0.03156293
000210 43 6a 6c 3b f7 2b 87 3c 64 62 d0 bc 26 7a a3 bd
       0.003607408 0.016500456 -0.025437541 -0.07982282
000220 01 61 93 bd 73 05 83 bd 14 92 03 3d 27 0d 92 3a
       -0.071962364 -0.06397524 0.032121733 0.0011142836
000230 84 15 0e bd 88 9d 4c 3c 54 68 33 bc 21 32 93 bc
       -0.034688488 0.01248873 -0.010950167 -0.01796824
000240 7c 74 3e 3c 58 e3 25 bd 56 85 ee bb 70 b8 c1 bc
       0.011624452 -0.040500015 -0.0072790785 -0.023647517
000250 18 e0 12 bd ba 7e 57 bd b4 e2 7f bc 02 4a 9e bd
       -0.035858244 -0.05261109 -0.015618015 -0.077289596
000260 63 55 04 3d 64 e5 4f bd fa 74 9e bd 49 1d b9 bd
       0.032307994 -0.050755873 -0.07737155 -0.09038789
000270 ec 4c 17 bc 3d ff 21 bd 10 d3 b8 bd 0b 3c d9 3b
       -0.009234648 -0.039550055 -0.09024632 0.006629472
000280 c6 d4 48 bc 9d 66 23 3d 78 e1 88 bd 78 cc 68 bd
       -0.01225776 0.03989278 -0.0668363 -0.05683562
000290 90 35 7a bb 37 30 e8 3b 32 98 3a bb f2 ce d6 bc
       -0.0038178898 0.007085826 -0.0028472063 -0.026221726
0002a0 55 df 34 bc 1a 6d 02 3a e0 95 92 bd f5 39 da bd
       -0.011039575 0.0004975364 -0.07157493 -0.10655586
0002b0 f0 cd 88 bd 28 a0 80 bd c1 97 2f bc 31 60 e0 3b
       -0.066799045 -0.062805474 -0.010717333 0.0068474044
0002c0 62 c2 15 3d 1a ba 7c bd 27 13 91 bc c2 96 28 3c
       0.03656233 -0.061700918 -0.017709328 0.01028985
0002d0 64 55 04 bd c2 9e fc bc f7 d1 40 bd 26 ff 77 bc
       -0.032307997 -0.03083742 -0.047075238 -0.015136516
0002e0 ac fa b4 3c e6 76 10 bd 8b 48 fe bc 5e 6e 87 3c
       0.022092186 -0.03526964 -0.03104045 0.01653212
0002f0 a9 50 8a bd 21 66 43 bd ec 09 46 3b 15 fd 86 3c
       -0.06753666 -0.04770482 0.0030218316 0.0164781
000300 fd 0c 85 ba c4 0d 2a bc b0 f3 ae bd ab 9f 20 3c
       -0.0010150966 -0.010379259 -0.085425735 0.009803693
000310 d9 48 8a bc 18 e0 92 bd 7a e0 81 bd 25 cb 47 bd
       -0.01688044 -0.07171649 -0.06341644 -0.048777718
000320 b1 4e 43 bd 1d 79 c7 bc 91 50 e0 3c 2c 50 2a bd
       -0.047682468 -0.024349744 0.027382167 -0.041580364
000330 a4 d1 ed 3c 62 50 8c bc fe ea 18 bd f2 22 9e bd
       0.029030629 -0.017128173 -0.03733348 -0.07721509
000340 de 26 65 bd 9d 6c 22 3d ad 21 19 3d c9 01 f3 3c
       -0.05594527 0.039654363 0.03738563 0.029663937
000350 6f 68 24 bd 61 40 1d bb bd 2c ac bc 8a 0e 4f 3d
       -0.040138658 -0.0023994672 -0.021017427 0.050550975
000360 b5 1a 5a bd bd 05 c8 bc c9 f6 7b bd 7f 0e 7a bc
       -0.053248126 -0.024416799 -0.06151465 -0.015262245
000370 d4 f1 58 bd 51 42 56 bd 5d d2 76 bc 16 5e 1a 3d
       -0.052965 -0.052309338 -0.015064803 0.037687384
000380 f9 4d 3a 3d 28 ad cc 3c 4a 38 9f bc b9 de 9c bc
       0.045484517 0.024984911 -0.01943602 -0.019149171
000390 88 5e a5 bd e3 d3 b2 3c 47 e4 90 bc cd 53 ac 3a
       -0.08074671 0.021829551 -0.017686976 0.0013147533
0003a0 23 ae 8c bd 32 37 27 bd af d2 49 bd 39 2a 69 bd
       -0.068691514 -0.040824123 -0.04927319 -0.056925032
0003b0 e8 cd 7a bd 73 66 16 bc 89 14 ce 3c 28 07 93 3c
       -0.061231524 -0.009179699 0.025156276 0.017947748
0003c0 7d 13 2b bd c9 a4 89 bc 85 c0 3f 3d 1e 06 37 bc
       -0.041766632 -0.016802208 0.04681446 -0.011170892
0003d0 9f 73 6f bd 9b 28 83 bd 05 cd 64 3c 1d 68 d1 bc
       -0.058459874 -0.06404229 0.013964896 -0.02556234
0003e0 c0 b5 71 bd 58 78 e9 3c fa 97 d8 3b bf 42 1a bd
       -0.05901122 0.028499767 0.006609914 -0.03766131
0003f0 f7 1a 91 bd 2b 6c 97 3a e4 77 17 bd 3b 0d f5 bc
       -0.07085221 0.0011552622 -0.03697957 -0.029913535

layer_2.bias f4 [128]
000000 bb 4f 9f bb b2 62 f7 bd d9 0f 74 3e 13 9d a4 be
       -0.0048617995 -0.120793715 0.2383417 -0.32151088
000010 23 21 71 3d 27 c9 33 be 52 ae e0 bc 98 d3 4a be
       0.058869492 -0.17557202 -0.027426872 -0.19807279
000020 0f 38 9b 3c 16 7b d2 be f0 03 be be b5 11 9b 3d
       0.01894763 -0.41109532 -0.3711238 0.07571737
000030 40 10 e0 3d db 61 02 bf fc 14 98 be 2a 25 77 3c
       0.109405994 -0.50930566 -0.2970351 0.015084544
000040 41 08 8b 3b 36 a9 5c be 00 d5 4c bd 7f 5b e8 be
       0.0042429273 -0.21548924 -0.05000782 -0.45382306
000050 d0 7b 09 be bf 29 b2 bc 1f 78 c0 bc d1 ed a9 be
       -0.13426137 -0.021748422 -0.023494778 -0.33189252
000060 d3 cf 50 3e 48 f7 03 be 81 fc 67 bd 66 4b db bd
       0.20391779 -0.12887299 -0.05663729 -0.107077405
000070 41 01 a3 be f4 9e 97 bd 86 7e 7a be 1e ec a6 3d
       -0.31836894 -0.07403365 -0.24462327 0.081505045
000080 77 59 43 3e 87 72 b4 be da 85 c0 be 52 b6 c1 be
       0.19077097 -0.35243627 -0.3760212 -0.37834412
000090 40 34 c4 be a9 19 bd 3d d9 9a cd be 20 9b 7a bb
       -0.38321114 0.0923341 -0.40157202 -0.0038239434
0000a0 d1 9a 16 be e4 2b bf be 40 6b e2 be 5b 3d 4e bf
       -0.14707495 -0.37338173 -0.4422245 -0.8056237
0000b0 d7 c2 fd bd 5a 9f 4d bd 61 79 15 be cb d1 03 bf
       -0.123906784 -0.050200798 -0.14597084 -0.51491994
0000c0 bb 75 00 3d 30 c5 d2 bd e1 0c 94 bd 7e c1 ff be
       0.031362277 -0.10291517 -0.07229019 -0.4995231
0000d0 00 e5 1b be 47 4e 99 be 67 05 2e bd 9c 95 4f bf
       -0.15224075 -0.29942533 -0.04248562 -0.8108766
0000e0 d6 3a 9f bd 1b 63 d9 3c 3b b5 1a be 6f 52 ad 3b
       -0.07774894 0.026536515 -0.15108196 0.005289368
0000f0 5b d1 28 bd 05 41 1c bf 9b 53 9a bd c3 2b 25 bf
       -0.041215282 -0.6103671 -0.07535478 -0.645199
000100 e7 03 85 be 0a 34 aa be 62 ef c7 be 80 8b 7a bd
       -0.2597954 -0.33242828 -0.39049822 -0.061168194
000110 de 5e bf bd ac 19 59 bd f2 39 97 3e e0 4b 91 be
       -0.09344266 -0.053003 0.29536396 -0.283782
000120 59 c2 aa 3e cd c0 b6 bc 97 81 d7 be b0 af 88 3e
       0.333514 -0.022308731 -0.42091057 0.2669654
000130 2a d8 be be 4a b3 63 bb fb d8 51 be fb eb 85 bd
       -0.37274295 -0.0034744316 -0.20492928 -0.0653915
000140 ed 09 a2 bb a0 a2 4c 3e 25 14 98 bd d6 ae 84 be
       -0.004945031 0.19983912 -0.07425717 -0.2591464
000150 bc cc 66 be f2 6d 01 be 71 fd bd be 4f ea 38 bd
       -0.22539037 -0.12639597 -0.37107423 -0.04514533
000160 04 d4 ca 3c 3d e5 91 bd 99 29 3d bf 98 52 82 3e
       0.0247593 -0.07123802 -0.738916 0.2545364
000170 9b 38 82 bd 39 6b c5 3d 72 41 e3 be 8e cf ee bc
       -0.06358453 0.09639592 -0.44385868 -0.029151704
000180 07 53 87 bd b9 ab 02 3d 29 57 d0 be 01 50 6a 3e
       -0.06607633 0.03190205 -0.40691498 0.22882082
000190 11 34 db be 32 87 03 bf d8 3d 8d be 1d 8c ef 3d
       -0.4281316 -0.51378167 -0.27586246 0.11696646
0001a0 85 39 20 bf c6 e0 db 3e af c1 d3 bd 20 3d 92 3d
       -0.6258777 0.42944926 -0.103396766 0.07140565
0001b0 28 50 a3 be 67 bd f0 be 83 d3 3f 3d de 3d 02 bf
       -0.31897092 -0.47019503 0.046832573 -0.5087565
0001c0 4e e0 0f 3e 7f f9 ef 3d 7b 23 80 be 6f 5a 8e 3e
       0.14050409 0.117175095 -0.2502707 0.2780337
0001d0 20 f5 09 3f 47 b2 2f bd 27 02 9b bd 67 88 58 bd
       0.53889656 -0.042894628 -0.0756877 -0.05286446
0001e0 dd b5 90 be c2 68 5d 3e 43 aa 33 bd c3 5a 63 3c
       -0.2826375 0.21621993 -0.043863546 0.01387662
0001f0 78 31 bc 3c 79 41 09 bf eb 69 20 be 29 29 bb bd
       0.022972807 -0.5361553 -0.15665404 -0.0913871

layer_3.weight f4 [4, 128]
000000 59 87 8a 3a af c3 11 be e3 d8 b8 3e 25 39 1d 3f
       0.0010568901 -0.14234804 0.3610297 0.6141532
000010 e5 bd 0b 3f 82 ba 43 bd f2 06 31 bd c3 b8 10 bd
       0.5458663 -0.04778529 -0.043219514 -0.035332453
000020 ff 66 14 3f 70 90 7b bf b2 46 82 be a0 96 18 3f
       0.5796966 -0.9826727 -0.2544456 0.59604836
000030 02 52 c6 3d cf ff 11 bf a3 13 d8 3e 72 4a 4a bf
       0.096836105 -0.5703096 0.42202482 -0.79019845
000040 38 95 25 3a c3 99 98 be f6 af e6 be 05 c0 8d be
       0.0006316486 -0.2980481 -0.45056123 -0.27685562
000050 ba b8 1c bf e0 63 6c 3f 69 99 ea bd a8 67 8e 3e
       -0.6121937 0.923399 -0.11455042 0.27813458
000060 d2 0b 76 3f 88 22 03 bf e7 fe f9 3e 37 4b 87 3c
       0.96111786 -0.51224566 0.48827288 0.016515357
000070 91 f9 2a 3f 48 9a b9 3d 77 7a a8 3f 51 43 48 3f
       0.6678706 0.0906263 1.3162373 0.78227717
000080 9a e6 cc be 06 64 15 bf 54 f1 2c bf f1 07 4a 3f
       -0.40019685 -0.5835575 -0.6755574 0.7891837
000090 9c 23 ac 3f f5 9f 71 3f 57 79 ed be f8 0a 69 bd
       1.3448367 0.943847 -0.46381637 -0.056895226
0000a0 59 bb 3e be 6b 59 74 3e 6e 0f aa 3f cf 43 28 3e
       -0.18626155 0.23862235 1.3285959 0.16432117
0000b0 5e 34 96 3e 76 32 ad 3d 5f 1e 25 3e b9 d7 1a bf
       0.29336828 0.0845689 0.16124867 -0.60485417
0000c0 09 b4 f6 3d c4 b8 2a bf 17 2b b8 3c da ce 34 3f
       0.12046058 -0.6668818 0.022481484 0.7062813
0000d0 c7 0d 16 bf e7 8d 1c bf df 02 a4 3b 98 f3 a2 be
       -0.5861477 -0.61154026 0.005005225 -0.31826472
0000e0 af 67 1b 3e 8c 58 ed bb 0a b6 b3 bc c5 06 ad 3e
       0.15176271 -0.0072432216 -0.021937389 0.33794227
0000f0 95 70 be 3c ca 6b 98 bf 03 11 23 bf 86 60 e5 3d
       0.023247043 -1.1907895 -0.6369783 0.11200051
000100 3f 45 ab bd 82 c6 b7 be 47 ca a1 bd 57 05 12 bc
       -0.08362817 -0.35893637 -0.078999095 -0.008912406
000110 c4 3f 85 bb f0 a3 90 3f a2 d4 80 bd 51 5e 9e bd
       -0.0040664393 1.130003 -0.062905565 -0.07732833
000120 d4 1c f0 be f8 32 0f 3f 69 0b 7d bd 09 f5 72 be
       -0.46896994 0.5593715 -0.06177846 -0.23726286
000130 da 63 b9 3e 71 6e aa be 7f 06 8f 3e 51 70 43 bf
       0.36208993 -0.33287385 0.27934644 -0.76343256
000140 7c 8f 0e 3e d5 80 61 3f fd 0c 05 3d 53 c4 8a 3e
       0.13921922 0.8808721 0.03248309 0.27102908
000150 d2 7c 82 3e 0f b5 dc be 5a 01 65 bd 81 91 0a bf
       0.25485855 -0.43106887 -0.055909492 -0.5412827
000160 37 a5 86 bf 5e 2a 6a 3d 50 d6 e8 be 77 24 08 bf
       -1.051917 0.05716931 -0.45476007 -0.5318064
000170 89 43 60 3e 7d ab 84 3f 4c 0e a2 bf 44 7b 62 bd
       0.21900763 1.0364834 -1.2660613 -0.055293337
000180 ea 2b 32 bc 12 7d 1c bf 20 50 17 bf 2b 26 0a 3e
       -0.010874728 -0.6112834 -0.59106636 0.13491122
000190 b3 1d 5e bc 03 0c f1 3d 9d 85 c2 3e 45 86 b1 bd
       -0.0135568855 0.11769869 0.37992564 -0.08668188
0001a0 30 16 b4 3f de 4e 90 3f fb 95 03 bd 13 a8 96 be
       1.4069271 1.1274068 -0.032125454 -0.29425105
0001b0 cc a3 62 be 4d 53 36 be 97 29 b2 be 0b 84 42 3f
       -0.22132796 -0.17805214 -0.34797356 0.7598273
0001c0 f0 e9 17 3f 3b a8 fb 3e ae d0 b6 3b 67 75 fb be
       0.59341335 0.49151787 0.005579076 -0.49113008
0001d0 73 5d 39 3e 09 bf 35 3f ee c4 e6 bc 80 1e 42 bf
       0.18102054 0.7099462 -0.028170075 -0.7582779
0001e0 e6 b9 13 bf b6 7e 6c bd 18 37 3d bf 4e 64 71 3f
       -0.57705534 -0.05773803 -0.7391219 0.9429368
0001f0 20 19 2c 3f 94 57 56 bf 63 91 0e 3f 10 fb 67 3e
       0.6722584 -0.83727384 0.5569059 0.22654366
000200 df 8c 70 3d e0 99 d6 be 1c 3c 8f 3e 03 37 3c 3f
       0.058728095 -0.41914272 0.27975547 0.7352144
000210 9e a6 96 be ab c1 0b 3f 08 6a 43 3b 9b 67 a7 3f
       -0.29423994 0.5459239 0.0029817838 1.3078493
000220 33 b2 2e bf 1a e8 1d bf 74 fb b8 3f 15 77 8e 3f
       -0.6824066 -0.61682284 1.4451737 1.1130091
000230 2a ce 78 3f a7 60 21 bf 11 3e 81 3f 07 2d cd 3e
       0.9718958 -0.63038105 1.0097066 0.40073416
000240 dd 35 86 3b 8f e5 66 3f 50 de f5 be 9f e8 8d be
       0.0040957765 0.9019403 -0.48021173 -0.27716538
000250 32 15 0d 3f 4f 6c 06 bf 2c de 20 bd 0a 1b 94 bf
       0.55110466 -0.52509016 -0.03927438 -1.1570752
000260 f4 9b a3 3e 30 d8 c8 3e 7d 67 ac bf ff cf f9 3c
       0.3195492 0.39227438 -1.3469082 0.030494688
000270 c7 b5 4d 3f d3 72 83 bb 9e 88 ee be 52 d0 c1 be
       0.80355495 -0.004011491 -0.46588606 -0.37854248
000280 3a 77 a2 3f 2b db 08 3f c6 c2 bb 3e 0c 25 31 3f
       1.2692635 0.53459424 0.36672038 0.69197154
000290 8a cb 13 3f a8 0b 38 bf 60 99 4d bf 1e 0c b6 3a
       0.5773245 -0.71892786 -0.80312157 0.0013889109
0002a0 3e a8 09 3f 04 68 ae 3f b6 ed a3 be bf 5d 60 3e
       0.5377234 1.3625493 -0.32017297 0.21910761
0002b0 f9 9d 39 bf ed 24 2c 3d da 70 a6 bb 55 42 20 bf
       -0.7250667 0.042027403 -0.005079371 -0.62601215
0002c0 6d 28 ad bf 5a 24 10 3f 5b 3d 33 3c 20 66 26 3e
       -1.3527962 0.5630547 0.010939921 0.16249895
0002d0 66 ed 80 ba b1 bc b9 3e 19 57 94 3d 55 36 ca bf
       -0.0009836375 0.36276773 0.07243175 -1.5797831
0002e0 98 f3 c9 be 1a bd 9f 3d e0 bc a4 be d5 e5 21 3f
       -0.3944366 0.0779974 -0.3217535 0.6324132
0002f0 a6 e7 5b 3d 50 07 22 3e 54 a3 dc be ee 49 3e bf
       0.053687714 0.15823102 -0.4309336 -0.7433156
000300 a9 95 81 3d 0d 47 93 bf 55 03 a7 bf e1 a7 d6 3b
       0.063273735 -1.1506058 -1.3047892 0.0065507744
000310 54 b2 51 3d 74 97 72 3e 8a b3 3d be c4 5d b8 3f
       0.051195458 0.23690587 -0.1852552 1.4403615
000320 76 4c 73 be 76 a7 8b 3e ad 5d 4f 3f cf 09 9a 3d
       -0.23759636 0.272762 0.8100231 0.07521402
000330 d2 ed f4 be b4 36 15 bf 4f 5d 56 bf 92 9a f5 be
       -0.47837692 -0.58286595 -0.8373613 -0.4796949
000340 c1 7c 9a 3e 51 c9 38 bc 40 86 12 3c ed 94 31 3f
       0.30173305 -0.011278466 0.0089431405 0.6936787
000350 ea 4f 90 bd ff 82 63 bf 53 48 4e be 2b 76 2b 3e
       -0.070464924 -0.8887176 -0.20144777 0.16744296
000360 8d e7 bd 3b ce a1 eb bf 6c 7c b9 3e d5 9d 30 3f
       0.0057954253 -1.8408754 0.3622774 0.6899083
000370 65 e8 a2 3f d0 80 5f be db c7 a5 3e eb eb 83 3d
       1.2727171 -0.21826482 0.3237904 0.06441482
000380 53 01 21 3c b8 86 11 be 58 54 81 be 15 45 86 3e
       0.009826976 -0.14211547 -0.25259662 0.2622458
000390 df 9d 55 bf 2d 22 79 be 0d e7 5d 3f e8 02 d5 3e
       -0.8344402 -0.24329443 0.8668068 0.4160378
0003a0 31 0a f0 be 06 b7 54 3e ac c8 59 bd f7 ee a4 bb
       -0.46882775 0.20772943 -0.05316989 -0.0050333696
0003b0 a6 b9 47 3f 6b 55 68 bf 2c fa 82 bf 0d 83 f2 3e
       0.7801765 -0.9075534 -1.0232596 0.4736561
0003c0 d0 2d 50 3f 63 04 fd 3e 63 bc f1 bd 94 31 54 3d
       0.81319904 0.4941741 -0.1180351 0.051805094
0003d0 8f ac fe bd e1 55 90 3f 46 8a 4a 3b 89 8f fc be
       -0.12435257 1.1276208 0.0030905171 -0.4932826
0003e0 cd e8 78 3e 42 79 88 bf a5 92 2e be ee 9e 36 3f
       0.24307556 -1.0662005 -0.17048128 0.7133626
0003f0 6a a0 d3 bd ec ef 43 3c 9e 6d f0 be 5a 61 18 bf
       -0.10333331 0.011959057 -0.4695863 -0.59523547

layer_3.bias f4 [4]
000000 5d 89 40 3e 78 54 a8 3d 0c f7 f0 3b 0f ab 0c be
       0.188024 0.08219236 0.007353669 -0.13737129
