checkpoint_critic.pth (torch, 349287 bytes, 12 tensors)

layer_1.weight f4 [256, 37]
-0.05404416 -0.033944104 -0.22071002 -0.47105902 -1.6521175 0.045473784 1.5972283 0.10716202
-0.20222177 0.1757809 -0.11005472 0.11777045 -0.03295532 -0.07617661 0.014800909 0.35042906
0.8481287 1.4227451 0.08737674 -0.12789245 -0.20976827 -0.2210102 -0.042677 0.019365136
0.15858862 -0.01711209 -0.10408481 0.7948302 -0.058902413 -0.16237344 -0.74520266 -0.13965172
0.45973074 -0.09371409 -0.06522304 -0.25117195 -0.09581382 0.5369854 0.00353006 0.40441325
0.27040464 -1.0167984 1.4836884 0.60285085 -0.032220237 -0.4610758 -0.41776964 0.19059634
-0.112447076 0.053431883 -0.30840474 0.1977067 -0.12835449 0.50754434 0.92432463 1.4989182
0.9565783 0.03400074 0.043334726 0.060288977 -0.16459468 0.045937233 -0.0031007603 -0.11836625
0.33431482 -0.004974227 0.13635118 -0.38138115 -0.09804723 0.009780212 -0.045747034 0.11379066
-0.048768934 0.20701568 -0.33502805 0.21618709 -0.24685873 -0.44708985 1.405806 2.6758497
0.78088194 0.14842491 -0.50594634 -0.23697712 -0.014528611 -0.05365798 -0.04275279 0.019993221
0.35565796 -0.08038659 0.04639366 0.054111917 0.4981882 -0.4009706 0.07821344 -0.21347098
0.011451531 -0.031783104 0.029494753 0.0699897 -0.0075667226 0.4912907 0.20592763 -0.11933492
-0.4463661 -0.11229791 -1.6510913 -0.06668531 -0.0022319087 0.18211949 -0.04199344 -0.15677607
0.34691232 -0.20963307 0.5169006 0.45525348 0.22309834 0.62850773 -0.010179003 -0.13234204
-0.37918636 0.22077957 0.038756423 -0.061110463 0.3786612 -0.012959445 0.60331094 -0.35837936
0.68494594 0.49646932 -0.027504964 -0.05353352 -0.050638545 -0.08479407 0.035441004 0.04835014
0.097228564 -0.29939502 0.6825002 -0.26232806 0.06400504 -0.7703799 0.12205459 -1.4206183
-0.04033617 0.10453653 0.042902686 0.13624454 0.3933902 -0.056070127 0.03724613 -1.2301133
0.3949677 -1.5311157 0.77921677 0.08967204 0.25926724 -0.024237094 0.07179589 0.00065336266
0.08200441 -0.42506692 0.09289648 0.2602448 -0.28575194 0.64338005 0.0027990162 0.2755531
0.16468407 -0.11438545 0.05172483 -0.056268834 -0.0016602396 -0.03110596 0.0064319707 0.35273647
-0.17271142 0.05863002 -0.2817829 -0.15477291 0.25411248 0.07662119 0.0026695416 0.20213878
0.10929189 0.32933998 0.58167106 0.17349923 1.0971624 -0.50703824 0.86672896 -0.2856322
0.069063894 -0.61853796 0.22487438 0.018884761 -0.031300362 0.06077613 -0.2969621 -0.19825128
-0.23693891 -1.2621263 0.06780247 1.1453208 0.28784525 -0.026573144 0.003629206 0.02431372
-0.12105231 -0.10031022 0.0015066267 0.10949952 0.26213017 0.10430688 -0.025944903 -0.24841563
0.02378163 -0.7123316 -0.10051317 -0.08856141 0.068218105 0.06988452 -0.108819775 0.2854465
-0.054015502 -0.28444457 -0.7747636 -1.4332207 -0.23089704 -0.26382402 -0.11746751 -0.8389996
0.08279519 0.012336779 -0.07363589 0.5948721 -0.08922332 0.2545369 -0.660689 -1.2125003
0.92535394 -0.7585549 -0.009638091 -0.09126356 0.05617302 0.16387773 0.11113583 -0.028580561
-0.38451758 0.70584095 -0.14519274 -0.120597705 -0.6333523 -0.079691984 -1.4375188 0.033113707
00000000: 695d 5dbd f908 0bbd cf01 62be a62e f1be
00000010: 9678 d3bf b842 3a3d fa71 cc3f c377 db3d
00000020: 3913 4fbe e9ff 333e 5e64 e1bd a231 f13d
00000030: 28fc 06bd 7c02 9cbd 837f 723c 706b b33e
00000040: f61e 593f 831c b63f 94f2 b23d 3df6 02be
00000050: 7ecd 56be 7f50 62be 14ce 2ebd a2a3 9e3c
00000060: 0e65 223e a72e 8cbc 6b2a d5bd fe79 4b3f
00000070: a843 71bd 3945 26be 9ac5 3ebf dc00 0fbe
00000080: d461 eb3e 2ced bfbd a893 85bd 9c99 80be
00000090: 093a c4bd e077 093f 9458 673b 410f cf3e
000000a0: 7a72 8a3e 7326 82bf 80e9 bd3f 6f54 1a3f
000000b0: 5ef9 03bd 2112 ecbe e7e5 d5be b02b 433e
000000c0: a74a e6bd 64db 5a3d 3ae7 9dbe a073 4a3e
000000d0: 5c6f 03be 6dee 013f 8aa0 6c3f 8ddc bf3f
000000e0: 51e2 743f 5c44 0b3d c17f 313d 93f1 763d
000000f0: 828b 28be ae28 3c3d 2036 4bbb 016a f2bd
00000100: 502b ab3e d7fe a2bb a59f 0b3e 6444 c3be
00000110: fccc c8bd 2f3d 203c 3e61 3bbd 140b e93d
00000120: efc1 47bd ebfb 533e cc88 abbe 2660 5d3e
00000130: 89c8 7cbe f6e8 e4be 73f1 b33f 1f41 2b40
00000140: e1e7 473f b3fc 173e b385 01bf 21aa 72be
00000150: 6909 6ebc 78c8 5bbd 8d1d 2fbd d3c8 a33c
00000160: cd18 b63e b9a1 a4bd 4707 3e3d 75a4 5d3d
00000170: 8612 ff3e 054c cdbe 5e2e a03d 2398 5abe
00000180: 349f 3b3c 002f 02bd fb9e f13c c356 8f3d
00000190: 45f2 f7bb 748a fb3e b1de 523e de65 f4bd
000001a0: 198a e4be 72fc e5bd f656 d3bf 4f92 88bd
000001b0: 3745 12bb 887d 3a3e 5001 2cbd e889 20be
000001c0: 7e9e b13e 0daa 56be 9953 043f fc16 e93e
000001d0: e473 643e e2e5 203f d5c5 26bc ac84 07be
000001e0: b724 c2be 0a14 623e 0ebf 1e3d f74e 7abd
000001f0: e1df c13e da53 54bc 9672 1a3f 807d b7be
00000200: 9e58 2f3f 3a31 fe3e 1752 e1bc f745 5bbd
00000210: 5d6a 4fbd 83a8 adbd 962a 113d cc0a 463d
00000220: c51f c73d 4e4a 99be 55b8 2e3f dd4f 86be
00000230: 1315 833d 9e37 45bf c2f7 f93d d2d6 b5bf
00000240: 8a37 25bd 4017 d63d baba 2f3d b083 0b3e
00000250: 716a c93e caa9 65bd 668f 183d 5a74 9dbf
00000260: 3539 ca3e 99fb c3bf c07a 473f f9a5 b73d
00000270: adbe 843e df8c c6bc b909 933d 6d46 2b3a
00000280: eef1 a73d 5fa2 d9be 8240 be3d ce3e 853e
00000290: 144e 92be 8eb4 243f b36f 373b 4c15 8d3e
000002a0: f1a2 283e eb42 eabd 6add 533d 267a 66bd
000002b0: 669c d9ba edd1 febc 48c3 d23b e099 b43e
000002c0: 43db 30be 0826 703d d945 90be ca7c 1ebe
000002d0: 081b 823e 92eb 9c3d 7af3 2e3b 78fd 4e3e
000002e0: 6dd4 df3d 409f a83e 65e8 143f c8a9 313e
000002f0: d16f 8c3f 42cd 01bf f3e1 5d3f 623e 92be
00000300: 5f71 8d3d 8158 1ebf 7845 663e 37b4 9a3c
00000310: cf34 00bd 64f0 783d 6b0b 98be 6202 4bbe
00000320: 1da0 72be 5b8d a1bf 05dc 8a3d df99 923f
00000330: 7460 933e ecaf d9bc f9d7 6d3b 912d c73c
00000340: 46ea f7bd 726f cdbd 017a c53a 4941 e03d
00000350: ed35 863e d89e d53d 688a d4bc ab60 7ebe
00000360: b1d1 c23c 5d5b 36bf d9d9 cdbd af5f b5bd
00000370: efb5 8b3d 9d1f 8f3d e7dc debd 0b26 923e
00000380: 5c3f 5dbd b8a2 91be e856 46bf c773 b7bf
00000390: 4670 6cbe f113 87be ce92 f0bd aec8 56bf
000003a0: 8690 a93d 3420 4a3c 6ace 96bd 8a49 183f
000003b0: b7ba b6bd a952 823e ea22 29bf 3633 9bbf
000003c0: ffe3 6c3f a730 42bf 15e9 1dbc 64e8 babd
000003d0: ae15 663d 90cf 273e 2f9b e33d c821 eabc
000003e0: 7ddf c4be feb1 343f 68ad 14be eefb f6bd
000003f0: 6023 22bf 8d35 a3bd 9e00 b8bf 3da2 073d

layer_1.bias f4 [256]
-1.001343 -0.120622665 -0.5156675 -0.57334125 -0.25937197 -0.41688183 -0.74881303 -0.5856988
-0.36731556 -0.38553813 -0.6672701 -0.4205027 -0.5228819 -0.7228962 -0.70559895 -0.3178531
-0.5055886 -0.57072884 -0.15045872 -0.43422645 -0.54654586 -0.419336 -0.02786517 -0.33276662
-1.0722417 -0.33177623 -0.46963155 -0.6142039 0.017842753 -0.6356024 -0.4834269 -0.34252277
-0.5160245 -0.34591028 -0.69019115 -0.7191322 -0.3329911 -0.32585728 -0.42699468 -0.6700031
-0.3947616 -0.77560693 -0.6036514 -0.675881 -0.5536989 -0.5289653 -0.45168743 -0.39588776
-0.69927776 -0.49368075 -0.46620005 -0.31436038 -0.8713403 -0.6724963 -0.5818449 -0.5684957
-0.36635208 -0.58190584 -0.43308958 -0.67036545 -0.86656046 -0.10898811 -0.323591 -0.5027535
-0.15866749 -0.49892792 -0.73168355 -0.57820886 -0.46195158 -0.54222447 -0.5565238 -0.6592627
-0.38028488 -0.32182938 -0.44167933 -0.19992776 -0.57573247 -0.9135088 -0.23968704 -0.8884919
-0.72024703 -0.3659938 -0.21712762 -0.34206647 -0.62349457 -0.014811763 -0.54539514 -0.3752653
-0.4811197 -0.6308147 -0.08839663 -0.4852851 -0.7130183 -0.50240606 -0.8535344 -0.5140331
-0.75793916 -0.34272283 -0.55751365 -0.59038824 -0.8392759 -0.43826923 -0.6432484 -0.44581062
-0.7284562 -0.49268848 -0.5366994 -0.22591805 -0.5772663 -0.67486197 -0.6206306 -0.16987118
-0.65841633 -0.54024285 -0.5644606 -0.6236245 -0.5662473 -0.60539925 -0.2839232 -0.6246982
-0.33359283 -0.6008939 -0.42033666 -0.7998121 -1.0070802 -0.7724586 -0.63208365 -0.32307053
-0.34355018 -0.4837733 -0.7068146 -0.56155574 -0.6341389 -0.6687151 -0.35081935 -0.69632554
-0.49888197 -0.76908344 -0.85484695 -0.5234856 -0.23081811 -0.37425762 -0.6252973 -0.45952344
-0.7871119 -0.47126418 -0.29836202 -0.38238662 -0.7282644 -0.9390726 -0.69713056 -0.887144
-0.5302304 -0.29786706 -0.8889796 -0.8508603 -0.67871964 -0.87516797 -0.6672987 -0.66103494
-0.86430734 -0.488737 -0.41335192 -0.5536557 -0.59118015 -0.57382387 -0.61986375 -0.7069429
-0.23388998 -0.33033088 -0.124556065 -0.21642366 -0.58421504 -0.38773337 -0.3459993 -1.0746325
-0.788342 -0.57186776 -0.30174702 -0.35025415 -0.32075146 -0.5408722 -0.46028715 -0.28753975
-0.31069338 -0.73735374 -0.26679125 -0.67961806 -0.45297116 -0.47869626 -0.48611993 -0.48288
-0.6327747 -0.5144415 -0.68394226 -0.8169228 -0.71168685 -0.40206018 -0.53095806 -0.5897691
-0.2885673 -0.39332125 -0.9842277 -0.62176853 -0.94856715 -0.32787243 -0.45994094 -0.58181864
-0.75504804 -0.21043636 -0.67090213 -0.8205097 -0.88295645 -0.76047695 -0.84614116 -0.5937927
-0.3075722 -0.9680768 -0.6738903 -0.64966446 -0.5173405 -0.43124178 -0.41726097 -0.2856368
-0.61132777 -0.810738 -0.33925492 -0.60444796 -0.39302748 -0.29353577 -0.74474627 -0.69819194
-0.27559638 -0.41287848 -0.45974135 -0.3956653 -0.115593515 -0.6570841 -0.5260591 -0.84296453
-0.7163046 -0.7598037 -0.43760255 -0.4397959 -0.62347937 -0.34596843 -0.9073718 -0.3265834
-0.63466626 -0.45909804 -0.51970464 -0.28240162 -0.48750407 -0.88867605 -0.25990564 -0.5044833
00000000: 022c 80bf 0409 f7bd c902 04bf 7ec6 12bf
00000010: 67cc 84be 8971 d5be 36b2 3fbf 5bf0 15bf
00000020: c910 bcbe 4165 c5be 37d2 2abf 214c d7be
00000030: 97db 05bf ba0f 39bf 22a2 34bf a4bd a2be
00000040: 416e 01bf 491b 12bf da11 1abe ee52 debe
00000050: 6eea 0bbf 35b3 d6be 7f45 e4bc 6360 aabe
00000060: 373f 89bf 93de a9be 8c73 f0be 773c 1dbf
00000070: f72a 923c d7b6 22bf bb83 f7be 255f afbe
00000080: 2e1a 04bf 271b b1be 5eb0 30bf 0c19 38bf
00000090: cf7d aabe c4d6 a6be 0c9f dabe 5385 2bbf
000000a0: 311e cabe 2d8e 46bf e688 1abf 8a06 2dbf
000000b0: 36bf 0dbf 456a 07bf 9343 e7be cdb1 cabe
000000c0: de03 33bf b9c3 fcbe c6b1 eebe d8f3 a0be
000000d0: 2810 5fbf b828 2cbf caf3 14bf ef88 11bf
000000e0: 8092 bbbe c8f7 14bf ebbd ddbe 129d 2bbf
000000f0: e8d6 5dbf 2935 dfbd b8ad a5be 74b4 00bf
00000100: bb79 22be 7b73 ffbe 9d4f 3bbf 7f05 14bf
00000110: eb84 ecbe 39cf 0abf 5878 0ebf 71c5 28bf
00000120: b3b4 c2be d2c6 a4be cb23 e2be ddb9 4cbe
00000130: 3463 13bf b6db 69bf 8570 75be 3574 63bf
00000140: 1c62 38bf 8a63 bbbe b456 5ebe 5623 afbe
00000150: 579d 1fbf 09ad 72bc 049f 0bbf c622 c0be
00000160: 5255 f6be 127d 21bf 4b09 b5bd 4a77 f8be
00000170: 5e88 36bf af9d 00bf 3b81 5abf ac97 03bf
00000180: 4d08 42bf 5e79 afbe 37b9 0ebf af23 17bf
00000190: c9da 56bf d364 e0be edab 24bf 4a41 e4be
000001a0: 1b7c 3abf aa41 fcbe 2265 09bf 1057 67be
000001b0: b9c7 13bf c1c3 2cbf a6e1 1ebf b6f2 2dbe
000001c0: f98d 28bf 5b4d 0abf 7d80 10bf dba5 1fbf
000001d0: 95f5 10bf 72fb 1abf 625e 91be 39ec 1fbf
000001e0: aecc aabe 2fd4 19bf 5e36 d7be 7cc0 4cbf
000001f0: 01e8 80bf d9bf 45bf 3cd0 21bf 8069 a5be
00000200: cfe5 afbe 22b1 f7be cdf1 34bf 1ec2 0fbf
00000210: ed56 22bf ea30 2bbf 989e b3be 6442 32bf
00000220: 756d ffbe a7e2 44bf 40d7 5abf 2703 06bf
00000230: 955b 6cbe b29e bfbe 7c13 20bf a846 ebbe
00000240: 2a80 49bf 8a49 f1be e8c2 98be 2ec8 c3be
00000250: 896f 3abf 1067 70bf 2677 32bf df1b 63bf
00000260: 2ebd 07bf 0882 98be 2b94 63bf fbd1 59bf
00000270: 92c0 2dbf 020b 60bf 16d4 2abf 9639 29bf
00000280: 3f43 5dbf bc3b fabe dda2 d3be 61bc 0dbf
00000290: 9557 17bf 1fe6 12bf 64af 1ebf 36fa 34bf
000002a0: db80 6fbe 2121 a9be 4017 ffbd 2a9e 5dbe
000002b0: 1e8f 15bf fd84 c6be d226 b1be 8f8d 89bf
000002c0: c8d0 49bf ed65 12bf 967e 9abe 8354 b3be
000002d0: 8939 a4be 9a76 0abf c2aa ebbe 6938 93be
000002e0: 3413 9fbe 37c3 3cbf dd98 88be 73fb 2dbf
000002f0: d6eb e7be ad17 f5be b6e4 f8be 0c3c f7be
00000300: 86fd 21bf 70b2 03bf d716 2fbf da21 51bf
00000310: 1c31 36bf d5da cdbe deec 07bf 1cfb 16bf
00000320: 18bf 93be 6761 c9be 59f6 7bbf 392c 1fbf
00000330: 4cd5 72bf e5de a7be 617d ebbe 11f2 14bf
00000340: d44a 41bf a17c 57be 3ec0 2bbf ec0c 52bf
00000350: 6f09 62bf 9eae 42bf b59c 58bf cc02 18bf
00000360: 1a7a 9dbe e2d3 77bf 1384 2cbf 6950 26bf
00000370: 6d70 04bf b9cb dcbe 3ba3 d5be fd3e 92be
00000380: fa7f 1cbf 878c 4fbf d2b2 adbe 1abd 1abf
00000390: e63a c9be 524a 96be b1a7 3ebf b5bc 32bf
000003a0: f81a 8dbe cf64 d3be 3863 ebbe a494 cabe
000003b0: 4bbc ecbd aa36 28bf cfab 06bf 86cc 57bf
000003c0: bd5f 37bf 7f82 42bf 710d e0be ee2c e1be
000003d0: 589c 1fbf c622 b1be 8549 68bf f035 a7be
000003e0: 7d79 22bf e60e ebbe 5d0b 05bf f296 90be
000003f0: 229a f9be 4680 63bf 5a12 85be d125 01bf

layer_2.weight f4 [128, 256]
-0.70301604 0.1911322 0.32845134 -0.23148507 -0.6972403 -0.84458095 0.0030935444 -0.28454134
0.1361034 0.12356249 0.01826254 -0.9243755 -0.3436185 0.08420382 -0.6508361 -0.30027717
-0.41981584 0.011750248 0.4062372 -1.1319901 0.112903826 -0.0641019 0.15866981 -0.3096054
-0.02434776 -0.9322966 -0.2776442 -0.14744638 0.20174243 -0.42968914 -0.26961017 -0.49046105
0.08500849 0.33586162 -1.2097683 -0.6823295 0.26628622 -0.12400124 -0.12924716 -0.36007306
0.45296243 0.016375164 -0.328555 -0.3320345 0.0017159204 -0.35645524 -0.94796234 -0.036808208
-0.919941 -0.6429986 0.0234006 -0.30912855 0.23145525 0.22065178 -0.25518113 -0.29228243
-0.08416616 -0.20238273 0.2860242 0.057569146 -0.06549861 0.22620998 -0.053102836 0.1709067
-0.15095817 -0.49801815 0.10615352 -0.42416704 0.36596078 -0.113186955 -0.483625 -0.42527205
-0.3438903 -0.5229481 0.041996844 0.24139084 -0.22024944 -0.7116588 -0.18563958 -0.10795325
-0.17150714 -0.22610568 -0.062303886 -0.5826131 0.14783129 -0.28303584 0.52130884 -0.04252053
-0.04555725 -0.19394855 -0.05289694 0.007513774 -0.2798027 -0.24540295 -0.023081265 0.2737542
-0.20561975 0.15543614 0.064108945 -0.0955959 0.05773869 0.007913594 -0.16173069 -0.007859317
-0.3805127 0.63109326 -0.31944898 0.24268694 -0.19786516 0.013720049 0.012526915 -0.30122504
-0.249322 0.027913027 -0.37219682 -0.35728976 0.41324294 0.14317656 -0.6013769 -0.17515796
0.17026863 -0.18277872 -0.5523486 -0.027914496 0.117570125 -0.51866007 -0.116670646 -0.20940825
-0.0663967 -0.16091664 -0.061372798 -0.45099276 -0.010439802 -0.26834652 -0.28793886 0.009724585
-0.8107179 -0.29598558 -0.101081386 -0.5797521 -0.3523115 0.095763415 -0.23844402 -0.21254545
-0.38265747 0.48497722 -0.3018799 0.10584569 -0.8116426 0.110731654 -0.21513659 -0.44047907
-0.12577398 -0.16541645 -0.37087148 -0.20130983 -0.33306015 0.0740404 -0.08623786 -0.7363355
-0.2232844 -0.56433636 0.06340153 0.20144746 -0.30292958 -0.25686026 -0.23221524 -0.102167405
-0.20302176 -0.82830197 -0.068982095 -0.587918 -0.72645605 -0.2663713 -0.93223786 -0.27861062
-0.26585504 -0.2372668 -0.7630524 0.17852652 -1.0057222 -0.22360842 0.09785338 -0.6624251
-0.0071934313 -0.07218588 0.1932929 -0.24393405 -0.25918937 -0.3444345 0.23753501 -0.13233145
0.13241357 0.23659624 -0.08494144 -0.3226292 -0.082445465 -0.23513591 -0.55155873 0.07131675
0.1793362 -0.1026368 -0.18509716 0.27932584 0.23051338 -0.42911428 0.10255015 -0.5684866
-0.04928215 -0.18255873 -0.5911963 -0.7691556 -0.043558516 0.04461824 -0.77789605 0.29254463
-0.46537027 0.0458049 -0.21406539 -0.822711 0.3271592 0.25978103 -0.28126305 -0.011602101
0.07652361 -0.3280257 -0.25223783 -0.3479615 -0.40327534 0.11677072 -0.14766496 -0.6403708
-1.0785193 -0.36930025 -0.47305647 -0.41850448 -0.6225871 0.5719858 0.13887314 -0.19413334
-0.7728255 -0.4895764 -0.039564554 0.2131117 0.3405667 -0.42890567 -0.34220263 -0.27445194
-0.1355438 0.035478257 -0.21139623 -0.4887197 -0.30587977 -0.36414438 0.046439722 0.10896086
00000000: dcf8 33bf 29b8 433e c62a a83e 6c0a 6dbe
00000010: 577e 32bf 7536 58bf 10bd 4a3b 67af 91be
00000020: b15e 0b3e 550e fd3d 539b 953c dfa3 6cbf
00000030: c4ee afbe 0d73 ac3d 329d 26bf eebd 99be
00000040: 1af2 d6be 1d84 403c 53fe cf3e 0de5 90bf
00000050: 1f3a e73d db47 83bd 577a 223e 9984 9ebe
00000060: f474 c7bc fdaa 6ebf 6127 8ebe 2ffc 16be
00000070: 9195 4e3e 3700 dcbe 580a 8abe b61d fbbe
00000080: ee18 ae3d 0ef6 ab3e b0d9 9abf 25ad 2ebf
00000090: ab56 883e 5df4 fdbd 5e59 04be 7f5b b8be
000000a0: b1ea e73e 3525 863c 5c38 a8be 6d00 aabe
000000b0: bce8 e03a 4d81 b6be a9ad 72bf 34c4 16bd
000000c0: 4181 6bbf 8e9b 24bf 9db2 bf3c 1946 9ebe
000000d0: 9b02 6d3e 8af2 613e 1aa7 82be 0ba6 95be
000000e0: 4f5f acbd 6b3d 4fbe c471 923e a0cd 6b3d
000000f0: 2324 86bd 97a3 673e 5c82 59bd 2a02 2f3e
00000100: c794 1abe 3cfc febe 0467 d93d 6c2c d9be
00000110: 365f bb3e 90ce e7bd b29d f7be 42bd d9be
00000120: 6412 b0be eddf 05bf e204 2c3d 292f 773e
00000130: 1289 61be 452f 36bf 4d18 3ebe 9816 ddbd
00000140: 919f 2fbe 3f88 67be 5c32 7fbd 2226 15bf
00000150: 1661 173e 13ea 90be 7f74 053f 022a 2ebd
00000160: 3d9a 3abd 739a 46be 76aa 58bd 1b36 f63b
00000170: 4d42 8fbe e94a 7bbe ec14 bdbc 8329 8c3e
00000180: fc8d 52be a72a 1f3e 8d4b 833d c9c7 c3bd
00000190: 687f 6c3d 05a8 013c bb9c 25be 5dc4 00bc
000001a0: 90d2 c2be 548f 213f d18e a3be ed82 783e
000001b0: 2a9d 4abe 0eca 603c b13d 4d3c 2b3a 9abe
000001c0: 444e 7fbe dca9 e43c 9590 bebe afee b6be
000001d0: 9494 d33e e09c 123e d6f3 19bf 9c5c 33be
000001e0: e65a 2e3e 582a 3bbe b866 0dbf f1ac e4bc
000001f0: 9bc8 f03d e8c6 04bf 05f1 eebd 1e6f 56be
00000200: fefa 87bd 55c7 24be 0b62 7bbd 86e8 e6be
00000210: b40b 2bbc b764 89be b96c 93be de53 1f3c
00000220: 358b 4fbf 6c8b 97be c203 cfbd a26a 14bf
00000230: 2c62 b4be 9c1f c43d ab2a 74be 84a5 59be
00000240: aeeb c3be ef4e f83e 0190 9abe a0c5 d83d
00000250: cfc7 4fbf 47c7 e23d c44c 5cbe 7986 e1be
00000260: e5ca 00be ee62 29be dee2 bdbe 2a24 4ebe
00000270: dc86 aabe 7ea2 973d 7a9d b0bd 7c80 3cbf
00000280: aaa4 64be 5978 10bf a9d8 813d 3e48 4e3e
00000290: 9619 9bbe 3083 83be d5c9 6dbe 253d d1bd
000002a0: f0e4 4fbe 990b 54bf 7c46 8dbd cb81 16bf
000002b0: 06f9 39bf d261 88be 24a7 6ebf 0da6 8ebe
000002c0: 271e 88be 11f6 72be 6757 43bf a8cf 363e
000002d0: 81bb 80bf 9bf9 64be 5a67 c83d b194 29bf
000002e0: e0b6 ebbb 31d6 93bd 93ee 453e d9c9 79be
000002f0: 78b4 84be b859 b0be 613c 733e e581 07be
00000300: 6c97 073e 4946 723e c7f5 adbd a82f a5be
00000310: 2bd9 a8bd 78c7 70be f432 0dbf 840e 923d
00000320: e9a3 373e 3e33 d2bd 1c8a 3dbe cc03 8f3e
00000330: b30b 6c3e deb4 dbbe d005 d23d 5688 11bf
00000340: 14dc 49bd adf0 3abe a458 17bf 62e7 44bf
00000350: 6a6a 32bd 9ec1 363d 3224 47bf 69c8 953e
00000360: 0345 eebe eb9d 3b3d f533 5bbe 309d 52bf
00000370: 6981 a73e 0502 853e b601 90be bd16 3ebc
00000380: 69b8 9c3d fcf2 a7be 5125 81be 0228 b2be
00000390: 1b7a cebe 7d25 ef3d 7c35 17be 57ef 23bf
000003a0: ec0c 8abf ec14 bdbe 7534 f2be 3846 d6be
000003b0: de61 1fbf a96d 123f c334 0e3e e4ca 46be
000003c0: e4d7 45bf c2a9 fabe 710e 22bd f439 5a3e
000003d0: c25e ae3e 8699 dbbe 2f35 afbe f784 8cbe
000003e0: fecb 0abe a651 113d 4178 58be 7839 fabe
000003f0: 469c 9cbe 2271 babe 9437 3e3d df26 df3d

layer_2.bias f4 [128]
-0.44408846 0.5779271 -0.07773664 0.30513126 0.7733416 -0.055140596 -0.53005743 -0.26800442
-0.06200423 -0.06225227 0.7327536 0.007007834 -0.3188418 -0.37932187 0.6603541 1.2030599
0.69993067 0.13138951 -0.21523571 0.71940386 -0.12267687 -0.46325782 -0.22574756 0.5149858
-0.045309428 0.8330116 0.58679324 0.47999933 -0.075463645 0.97595394 -0.03087262 -0.131497
-0.3049249 0.625466 0.18083723 0.23599535 -0.4225922 0.03796679 -0.42465696 0.8140774
0.32677475 -0.24219964 0.68500596 1.0919712 -0.26589787 -0.08140829 -0.6242099 0.11992305
0.3257236 -0.042299356 -0.22857931 -0.14516154 -0.008414143 -0.29869568 0.54788893 -0.40809724
-0.06733246 -0.6995449 -0.29332894 -0.33938655 -0.10544592 0.9885008 0.023649307 -0.6076436
-0.32591277 -0.36386356 0.079496026 -0.12519388 0.13522282 -0.07556849 0.5607503 -0.71097785
0.2617852 0.7112451 0.10748435 0.031649783 0.29703796 -0.08223142 0.3845902 0.019938381
-0.36961764 0.70916265 -0.49051264 0.3948097 -0.3857903 -0.4266511 0.6014748 -0.11825971
-0.39562118 0.40594706 0.7188684 0.06790227 -0.43182802 -0.12457904 0.6236898 0.6937262
-0.03209425 -0.45970768 -0.250082 -0.38439938 0.08484471 -0.22691214 0.03496055 -0.2701381
-0.17474458 -0.7382666 0.025588468 0.72404563 0.353763 0.76995707 -0.14386384 -0.018725326
-0.53860086 -0.047811463 0.98059666 0.33456025 0.290845 0.94798803 0.30273485 -0.15459937
-0.35066572 0.52232426 -0.53391916 -0.028539767 -0.015326615 0.24198307 0.76048493 0.1614772
00000000: 905f e3be 08f3 133f 6334 9fbd 2a3a 9c3e
00000010: b7f9 453f 1bdb 61bd d8b1 07bf e037 89be
00000020: 26f8 7dbd 3cfc 7ebd bd95 3b3f f9a1 e53b
00000030: 3b3f a3be 7a36 c2be f70c 293f defd 993f
00000040: a82e 333f f98a 063e c066 5cbe da2a 383f
00000050: 033e fbbd 2130 edbe 5e2a 67be 1cd6 033f
00000060: 6196 39bd 4040 553f 1538 163f 79c2 f53e
00000070: af8c 9abd 1ed8 793f 94e8 fcbc 26a7 06be
00000080: 1e1f 9cbe 8a1e 203f 652d 393e c4a8 713e
00000090: 015e d8be 1183 1b3d a36c d9be 6067 503f
000000a0: 054f a73e 2f03 78be 8d5c 2f3f b6c5 8b3f
000000b0: c423 88be 64b9 a6bd 38cc 1fbf 379a f53d
000000c0: 3ec5 a63e 1742 2dbd b210 6abe 3aa5 14be
000000d0: 79db 09bc a4ee 98be 7342 0c3f 1ff2 d0be
000000e0: 9ae5 89bd 6015 33bf 362f 96be 13c4 adbe
000000f0: 08f4 d7bd 630e 7d3f 31bc c13c 888e 1bbf
00000100: 0ade a6be 534c babe d0ce a23d d332 00be
00000110: da77 0a3e a7c3 9abd 558d 0f3f a502 36bf
00000120: b608 863e 2914 363f c120 dc3d 34a3 013d
00000130: 5c15 983e f268 a8bd 02e9 c43e d155 a33c
00000140: 863e bdbe af8b 353f 7924 fbbe 7f24 ca3e
00000150: 4e86 c5be 0372 dabe 41fa 193f 2632 f2bd
00000160: dc8e cabe 4bd8 cf3e c207 383f 5810 8b3d
00000170: 9018 ddbe 4c23 ffbd 22aa 1f3f 0a98 313f
00000180: 4375 03bd ce5e ebbe bf0a 80be ffcf c4be
00000190: 10c3 ad3d a85b 68be cb32 0f3d 8b4f 8abe
000001a0: 3ef0 32be 0aff 3cbf e89e d13c 0e5b 393f
000001b0: 6d20 b53e e81b 453f 0b51 13be db65 99bc
000001c0: bfe1 09bf f4d5 43bd 6208 7b3f 7b4b ab3e
000001d0: a3e9 943e 58af 723f 1000 9b3e 4c4f 1ebe
000001e0: 758a b3be 0bb7 053f edae 08bf 3bcc e9bc
000001f0: 7c1c 7bbc 69ca 773e 24af 423f 475a 253e

layer_3.weight f4 [4, 128]
-0.031539842 0.0153616825 0.020859102 0.017256066 0.01892454 0.026694844 -0.02019072 -0.048266556
-0.030948726 -0.003153848 0.011128088 -0.032994602 -0.026950274 -0.035337575 0.013125037 0.026532987
0.015727373 0.016547803 -0.03522406 0.016389057 0.014102443 -0.027079817 -0.030993616 0.015244837
0.0160441 0.0145065375 0.015354172 0.018561212 -0.028801575 0.022891633 0.022330644 -0.012924596
0.01919977 0.01573101 0.016979301 0.016716281 -0.01776717 0.018833425 -0.030481834 0.013224526
0.012811398 -0.051358104 0.014085134 0.023395987 -0.03187818 -0.03512977 -0.019246724 0.014365054
0.023768516 -0.0045814672 -0.012750437 -0.0023512705 0.014001219 -0.023004856 0.017798202 -0.034865044
-0.032689407 -0.017363876 -0.022303337 -0.026316443 -0.020654483 0.02097316 0.021068424 -0.026917651
-0.022889942 -0.034815844 0.02240106 -0.057621818 0.020244328 0.06460109 0.011370655 -0.017904205
0.015498934 0.014602228 -0.039742094 -0.044087976 0.019965498 0.014880524 0.0121063655 -0.0331927
-0.036696874 0.014049202 -0.02204283 0.014117903 -0.028636856 -0.046438936 0.013525443 0.03459375
-0.016168766 0.017245607 0.016175348 0.016867576 -0.025816793 -0.014224739 0.020224236 0.019723114
0.028782872 -0.020534933 0.02073244 -0.034996457 0.018798944 -0.016852722 0.017553063 -0.03359827
0.013460148 -0.019642299 -0.03971694 0.013722012 0.022521904 0.014012219 -0.03495763 -0.026601508
-0.022347994 0.011815942 0.017251132 0.017089278 0.02984322 0.012396478 0.013349958 -0.035645176
-0.028260766 0.01071337 -0.029012356 0.023565218 0.023912892 0.029050367 0.01116184 0.015308212
-0.031539828 0.01536167 0.020764105 0.01725608 0.01892454 0.027728625 -0.02019072 -0.04826658
-0.030948736 -0.04172565 0.0111280605 -0.03299461 -0.026950283 -0.03533759 0.013125064 0.026533008
0.015727403 0.01654781 -0.035224054 0.01638905 0.01257226 -0.02707983 -0.03099365 0.015244835
0.016122334 0.014506529 0.015354227 0.018561156 -0.028801568 0.02289162 0.022330612 -0.01024794
0.019199682 0.015731001 0.016979266 0.016716283 -0.01776716 0.018833442 -0.030481854 0.013224622
0.012811343 -0.05135811 0.014085148 0.02339602 -0.031878185 -0.035129763 -0.019246703 0.0143650295
0.023768466 -0.0021871226 -0.017720504 -0.0023927148 0.012775582 -0.023004837 0.017798206 -0.034865033
-0.032689415 -0.017363895 -0.022303358 -0.026316458 -0.020654485 0.020973166 0.021068517 -0.026917646
-0.022889936 -0.034815867 0.022401022 -0.057621825 0.020244371 -0.047946963 0.011370655 -0.017904213
0.0154989045 0.014602229 -0.039742105 -0.044088002 0.019965474 0.014880532 0.01210638 -0.033192698
-0.03669691 0.014049248 -0.022042826 0.014117902 -0.028636849 -0.04643895 0.0135254515 0.034593806
-0.016168764 0.017245587 0.016175367 0.016867591 -0.025816774 -0.013635204 0.020224249 0.0197231
0.028782886 -0.020534942 0.027356092 -0.03499647 0.01879901 -0.01685275 0.017553188 -0.033598274
0.013460146 -0.019642321 -0.039716944 0.013721959 0.022521967 0.014012244 -0.03495759 -0.026601493
-0.02234796 0.011815903 0.017251128 0.01708926 0.029843228 0.012396494 0.01334996 -0.035645198
-0.028260762 0.01071339 -0.02901235 0.023565229 0.023912953 0.029050473 0.011161825 0.015308229
00000000: ec2f 01bd 91af 7b3c b5e0 aa3c 985c 8d3c
00000010: a307 9b3c 25af da3c 0267 a5bc 27b3 45bd
00000020: 2f88 fdbc cab0 4ebb 9652 363c 5925 07bd
00000030: d2c6 dcbc 22be 10bd 650a 573c b55b d93c
00000040: b1d6 803c 428f 873c 1b47 10bd 5842 863c
00000050: ef0d 673c 7ed6 ddbc 53e6 fdbc 7bc5 793c
00000060: eb6e 833c d4ac 6d3c 1190 7b3c af0d 983c
00000070: 48f1 ebbc 3c87 bb3c c1ee b63c afc1 53bc
00000080: d648 9d3c 52de 803c 2d18 8b3c 95f0 883c
00000090: 758c 91bc 8e48 9a3c 0ab5 f9bc afab 583c
000000a0: e6e6 513c e05c 52bd 55c5 663c f1a8 bf3c
000000b0: b292 02bd 3ce4 0fbd 4eab 9dbc 675b 6b3c
000000c0: 31b6 c23c 2220 96bb 35e7 50bc c617 1abb
000000d0: 5e65 653c ae74 bcbc 89cd 913c a6ce 0ebd
000000e0: 54e5 05bd b03e 8ebc 7db5 b6bc 9595 d7bc
000000f0: 9733 a9bc e8cf ab3c b097 ac3c 6882 dcbc
00000100: b083 bbbc 0f9b 0ebd 6e82 b73c db04 6cbd
00000110: 6fd7 a53c 944d 843d fc4b 3a3c d7ab 92bc
00000120: 3eef 7d3c 2f3e 6f3c 9bc8 22bd 9895 34bd
00000130: af8e a33c 71cd 733c c759 463c 12f5 07bd
00000140: 764f 16bd a02e 663c 2a93 b4bc c74e 673c
00000150: d797 eabc c136 3ebd d299 5d3c 2db2 0d3d
00000160: 5c74 84bc a946 8d3c 2a82 843c df2d 8a3c
00000170: bd7d d3bc e10e 69bc 4cad a53c 5e92 a13c
00000180: 0fca eb3c e038 a8bc 14d7 a93c 7258 0fbd
00000190: 3e00 9a3c b80e 8abc 71cb 8f3c 579e 09bd
000001a0: f487 5c3c e3e8 a0bc 3bae 22bd 4ad2 603c
000001b0: db7f b83c 8293 653c bb2f 0fbd 68eb d9bc
000001c0: 2413 b7bc a797 413c 3f52 8d3c d0fe 8b3c
000001d0: c579 f43c 991a 4b3c c8b9 5a3c ad00 12bd
000001e0: 1f83 e7bc 2187 2f3c 52ab edbc d80b c13c
000001f0: f8e4 c33c 09fb ed3c 26e0 363c 4bcf 7a3c
00000200: e82f 01bd 84af 7b3c 7c19 aa3c 9f5c 8d3c
00000210: a307 9b3c 2427 e33c 0267 a5bc 2db3 45bd
00000220: 3488 fdbc 84e8 2abd 7852 363c 5b25 07bd
00000230: d7c6 dcbc 26be 10bd 820a 573c c05b d93c
00000240: c1d6 803c 468f 873c 1947 10bd 5442 863c
00000250: e1fb 4d3c 85d6 ddbc 65e6 fdbc 79c5 793c
00000260: fc12 843c cbac 6d3c 4c90 7b3c 910d 983c
00000270: 44f1 ebbc 3587 bb3c b0ee b63c fae6 27bc
00000280: a748 9d3c 4dde 803c 1a18 8b3c 96f0 883c
00000290: 6f8c 91bc 9748 9a3c 15b5 f9bc 16ac 583c
000002a0: abe6 513c e25c 52bd 65c5 663c 03a9 bf3c
000002b0: b392 02bd 3ae4 0fbd 43ab 9dbc 4d5b 6b3c
000002c0: 16b6 c23c d455 0fbb 972a 91bc 18cf 1cbb
000002d0: ad50 513c a474 bcbc 8bcd 913c a3ce 0ebd
000002e0: 56e5 05bd ba3e 8ebc 88b5 b6bc 9d95 d7bc
000002f0: 9833 a9bc ebcf ab3c e297 ac3c 6582 dcbc
00000300: ad83 bbbc 159b 0ebd 5982 b73c dd04 6cbd
00000310: 86d7 a53c 0964 44bd fc4b 3a3c dbab 92bc
00000320: 1eef 7d3c 303e 6f3c 9ec8 22bd 9f95 34bd
00000330: a28e a33c 7acd 733c d759 463c 11f5 07bd
00000340: 804f 16bd d12e 663c 2893 b4bc c64e 673c
00000350: d397 eabc c536 3ebd db99 5d3c 3cb2 0d3d
00000360: 5b74 84bc 9e46 8d3c 3482 843c e72d 8a3c
00000370: b37d d3bc 3166 5fbc 53ad a53c 5792 a13c
00000380: 16ca eb3c e538 a8bc e219 e03c 7558 0fbd
00000390: 6200 9a3c c70e 8abc b4cb 8f3c 589e 09bd
000003a0: f287 5c3c efe8 a0bc 3cae 22bd 11d2 603c
000003b0: fd7f b83c 9c93 653c b12f 0fbd 60eb d9bc
000003c0: 1213 b7bc 7d97 413c 3d52 8d3c c7fe 8b3c
000003d0: c979 f43c aa1a 4b3c cab9 5a3c b300 12bd
000003e0: 1d83 e7bc 3787 2f3c 4fab edbc de0b c13c
000003f0: 19e5 c33c 42fb ed3c 16e0 363c 5ecf 7a3c

layer_3.bias f4 [4]
0.051174823 0.051175095 0.051174838 0.051175203
00000000: b19c 513d fa9c 513d b59c 513d 179d 513d

layer_4.weight f4 [256, 37]
0.031428352 -0.021426275 0.13740404 -0.060570538 0.1350557 -0.030346602 0.06429303 -0.13676722
0.11991309 0.041016296 -0.14375304 -0.11328381 -0.025822118 0.15792222 -0.13872415 -0.024018615
0.067761555 -0.1580739 -0.09868794 -0.015138686 -0.13649097 -0.0685614 -0.1103557 -0.01419028
-0.13201402 -0.08267923 -0.15757702 -0.11588201 -0.12702659 -0.080178045 -0.0021390468 0.14829083
-0.028819337 0.010882333 -0.16054079 0.053887874 -0.024224102 -0.025973216 0.1550938 0.07650235
-0.0072193295 -0.05936162 -0.0109157115 -0.13283183 0.15289693 -0.09804546 0.10796403 0.15027441
0.08063321 0.16425355 -0.08491025 0.025832877 0.06302208 -0.11879868 -0.14878967 0.023472426
0.13734026 0.10087244 0.07031037 0.09079022 0.112916455 -0.14856786 -0.15628622 0.1421247
-0.07854758 0.013066173 -0.06629557 0.04146795 0.018666461 0.1423616 -0.024499059 0.048735186
-0.048695043 0.108552635 0.0129252225 0.14672168 -0.12919188 -0.07221946 0.09810148 -0.14763516
-0.082922965 0.07160887 -0.057985164 -0.09144295 -0.010870844 0.12640074 0.01262778 -0.0344788
-0.16069742 -0.049400195 0.091423884 -0.1291102 0.143176 0.008942962 0.12959154 0.011708273
-0.1546686 0.073277846 -0.12705824 0.027856708 -0.013760403 -0.14497963 0.054075584 -0.09074376
0.08956565 -0.0525366 -0.10414183 -0.1428668 -0.09538299 0.14527331 0.16265894 0.09616996
-0.11921488 0.0357188 -0.0977119 0.08085358 0.1551478 0.07732497 0.03774257 -0.021114305
-0.073608965 -0.08659775 -0.092396 0.07453899 0.1392241 -0.0055550635 0.15806289 0.048098892
-0.054572172 0.114706896 -0.12728193 0.020889938 -0.09127737 0.07688439 0.008956179 0.0038929433
-0.031328335 -0.12287504 -0.03032814 0.08184436 -0.04622457 -0.055889428 0.13365494 -0.0051798504
0.078311235 0.07080006 -0.07710785 -0.03578058 -0.13537459 0.08526233 0.13060857 -0.106400765
0.1314672 -0.05185485 0.07139185 0.05064872 0.04296176 0.060382262 0.030468792 -0.09171634
-0.13493921 0.12474455 0.060256153 -0.0059762 0.037231177 -0.04106254 -0.16113758 0.10239573
-0.11101723 -0.054816492 -0.069519855 0.13845593 -0.06642807 0.027626177 0.013263866 0.12992965
0.16334541 0.064705595 -0.032783985 0.084993795 0.05462329 -0.14487083 -0.010339037 0.119572654
-0.13021548 -0.08781938 -0.08086078 0.10616179 -0.13893096 0.010811463 -0.117018506 0.12991266
-0.0978957 0.06022196 -0.09313051 -0.064926445 0.006298229 -0.008987845 -0.104208894 -0.14412598
-0.10738321 -0.09470928 0.09336071 0.059525803 -0.10595499 -0.07625808 0.124603346 -0.14716485
0.14347573 -0.008143321 -0.13979705 0.07895157 0.11059673 0.07566535 -0.04552205 -0.0649346
0.0146636665 -0.11086403 0.02742213 -0.10673769 0.021640286 -0.04180137 0.11382164 -0.1601374
-0.10757838 0.0904922 -0.061864883 0.123704985 -0.12656142 0.049952835 0.026615947 0.16386403
0.10674368 0.07623343 -0.020073503 0.0360547 0.101283416 -0.121321335 -0.15632266 -0.0018265396
-0.16355768 0.009450421 0.030286834 0.11842804 0.11818636 -0.1567995 0.16232182 -0.12874988
-0.14671358 -0.04836621 0.03121695 -0.039019004 -0.023705542 -0.011144951 -0.035999864 -0.05672065
00000000: 04bb 003d 2886 afbc a5b3 0c3e d018 78bd
00000010: 0b4c 0a3e 7099 f8bc 10ac 833d b50c 0cbe
00000020: fe94 f53d b400 283d ff33 13be 5801 e8bd
00000030: e888 d3bc 5db6 213e b40d 0ebe b0c2 c4bc
00000040: 92c6 8a3d 20de 21be e71c cabd 4008 78bc
00000050: 4ac4 0bbe eb69 8cbd 2b02 e2bd 597e 68bc
00000060: af2e 07be ba53 a9bd df5b 21be 8c53 edbd
00000070: 4213 02be 6334 a4bd 402f 0cbb 8dd9 173e
00000080: 8816 ecbc d04b 323c ce64 24be 88b9 5c3d
00000090: a071 c6bc c8c5 d4bc e9d0 1e3e 44ad 9c3d
000000a0: 2090 ecbb 2c25 73bd d0d7 32bc 1105 08be
000000b0: 0391 1c3e 0fcc c8bd 3f1c dd3d 89e1 193e
000000c0: 0623 a53d 1532 283e 6de5 adbd 789f d33c
000000d0: b811 813d b94c f3bd 525c 18be 3f49 c03c
000000e0: eda2 0c3e 3696 ce3d e2fe 8f3d 39f0 b93d
000000f0: be40 e73d 2c22 18be 7f09 20be 2389 113e
00000100: 8edd a0bd 8013 563c f9c5 87bd 4cda 293d
00000110: 68ea 983c 3dc7 113e 40b2 c8bc 8c9e 473d
00000120: 7474 47bd d850 de3d 50c4 533c 353e 163e
00000130: e04a 04be cce7 93bd 6ee9 c83d ac2d 17be
00000140: 84d3 a9bd aca7 923d da81 6dbd 7146 bbbd
00000150: a01b 32bc 326f 013e c0e4 4e3c a439 0dbd
00000160: dd8d 24be dc57 4abd 723c bb3d 7735 04be
00000170: bb9c 123e 8085 123c a5b3 043e 0ed4 3f3c
00000180: 7261 1ebe b212 963d 8e1b 02be c033 e43c
00000190: 5073 61bc 8a75 14be 5c7e 5d3d ddd7 b9bd
000001a0: 326e b73d 9e30 57bd 5048 d5bd ad4b 12be
000001b0: 2858 c3bd 87c2 143e 1190 263e c2f4 c43d
000001c0: ee26 f4bd e04d 123d 2d1d c8bd 9096 a53d
000001d0: 11df 1e3e 8e5c 9e3d f497 1a3d e8f7 acbc
000001e0: 4cc0 96bd 295a b1bd 1d3a bdbd e6a7 983d
000001f0: c390 0e3e 4007 b6bb 3ddb 213e 5803 453d
00000200: 1287 5fbd 73eb ea3d 3256 02be 6021 ab3c
00000210: a1ef babd 9075 9d3d f0bc 123c c020 7f3b
00000220: 2452 00bd e9a5 fbbd b872 f8bc 049e a73d
00000230: fa55 3dbd 50ec 64bd d7dc 083e bcbb a9bb
00000240: a461 a03d 9fff 903d b8ea 9dbd a88e 12bd
00000250: a39f 0abe 049e ae3d 41be 053e a5e8 d9bd
00000260: 569f 063e c065 54bd e435 923d 0875 4f3d
00000270: acf8 2f3d 6453 773d b099 f93c c7d5 bbbd
00000280: 812d 0abe 127a ff3d 28cf 763d 00d4 c3bb
00000290: b87f 183d 3231 28bd 4001 25be dab4 d13d
000002a0: 005d e3bd 4287 60bd 6d60 8ebd 64c7 0d3e
000002b0: 710b 88bd 4b50 e23c b050 593c 470c 053e
000002c0: 0544 273e 5e84 843d 8048 06bd 3a11 ae3d
000002d0: acbc 5f3d 0559 14be 1065 29bc 82e2 f43d
000002e0: 3557 05be a6da b3bd 569a a5bd 5a6b d93d
000002f0: eb43 0ebe 9022 313c 66a7 efbd d307 053e
00000300: 8a7d c8bd 4dab 763d 35bb bebd 28f8 84bd
00000310: 6061 ce3b c141 13bc 796b d5bd c395 13be
00000320: baeb dbbd f0f6 c1bd e633 bf3d 54d1 733d
00000330: eefe d8bd 322d 9cbd 0a30 ff3d 62b2 16be
00000340: 4deb 123e 906b 05bc f526 0fbe 5cb1 a13d
00000350: 8a80 e23d 6ff6 9a3d 5475 3abd 6efc 84bd
00000360: e03f 703c ae0c e3bd 60a4 e03c 4a99 dabd
00000370: f846 b13c ea37 2bbd 521b e93d 0ffb 23be
00000380: 0e52 dcbd f953 b93d 0866 7dbd 0a59 fd3d
00000390: 5199 01be 589b 4c3d b009 da3c f9cb 273e
000003a0: 6e9c da3d 4620 9c3d 3071 a4bc 18ae 133d
000003b0: ae6d cf3d 5277 f8bd 0c13 20be 8068 efba
000003c0: aa7b 27be f0d5 1a3c 181c f83c 668a f23d
000003d0: b10b f23d 0c90 20be b137 263e 02d7 03be
000003e0: 163c 16be a61b 46bd b0ba ff3c 64d2 1fbd
000003f0: 2032 c2bc 5099 36bc 9874 13bd ea53 68bd

layer_4.bias f4 [256]
0.02410464 -0.091634676 -0.14798333 -0.098337755 -0.10565432 0.102976575 0.13437627 0.00054648967
-0.07085057 -0.1565107 -0.1403989 0.10642479 -0.15543643 0.08977823 0.06918138 -0.14248377
-0.12910014 0.14643438 -0.040023252 0.09823646 0.055845425 0.11883615 -0.09644236 -0.007039264
-0.024987653 0.10009231 -0.0719604 -0.1434077 0.1202289 -0.010912913 0.11311789 0.160457
0.06972277 -0.11961689 0.013119996 0.113857515 -0.04266444 0.047427237 0.14579754 -0.09296582
0.09980554 -0.1114669 -0.00042794645 0.07491891 -0.109553784 0.12045176 0.11597793 -0.024505347
-0.100640014 0.02093321 0.090030715 -0.019613951 0.005093023 0.07891138 0.102417484 0.031404495
-0.059773393 -0.028277397 -0.14731556 -0.04824668 0.1488026 -0.128896 -0.0747569 0.08395666
0.0026795662 -0.063053235 -0.1296731 -0.0960504 0.04400578 0.0954798 0.04176551 0.12063469
-0.11096803 0.10288267 -0.07158692 0.10601941 -0.06740442 0.15251012 -0.10089061 -0.13990304
-0.10195559 0.12872182 -0.02870579 0.0025661886 -0.04231493 -0.037789166 -0.070464775 -0.117677644
0.15205558 -0.07765984 -0.018649548 0.08348423 0.15788789 0.062647805 0.07055478 -0.132389
0.008602411 0.10320483 0.028029725 -0.096184544 0.10692255 0.003382355 0.015777469 0.046617024
-0.117931396 0.14839779 -0.022065207 0.15840341 -0.069101304 0.13623868 0.11421339 -0.14486581
-0.16343187 0.12468602 -0.039117917 0.06896901 0.045030996 0.060156494 0.059505433 -0.11137046
0.015765443 0.051653743 0.028962508 -0.13321315 0.018408686 -0.11763155 -0.088844016 0.040863514
-0.056385353 -0.054768063 -0.027363703 -0.07203687 0.091283366 -0.10232599 0.128341 -0.042482376
-0.14531736 -0.08795196 0.08702843 0.11011021 -0.112593226 0.11894633 -0.13163638 -0.025786266
0.060559526 -0.06339567 0.14464407 0.018569052 -0.009652818 -0.03989651 0.06485197 0.07960676
-0.035092518 -0.11446139 0.12692316 0.10984193 0.04305756 0.03979738 0.09938085 0.010431439
0.13085239 0.037504286 -0.04908532 0.098450884 0.1123984 0.019683957 0.014020413 0.12222992
-0.063186854 -0.015049902 0.0081151845 0.085128635 -0.05694366 0.08814548 -0.035187684 0.14851902
0.13411726 0.010386527 0.033356875 -0.15047324 0.09927769 -0.012419134 -0.046237037 0.07009365
-0.069668874 -0.0020294946 0.1581897 0.07028198 -0.13652019 0.008892462 -0.017431885 -0.13324136
0.01831842 0.111573204 -0.10061529 0.04955037 0.026468396 -0.09865509 -0.057790406 0.122875884
-0.16298388 -0.1125719 0.16142188 0.11885278 0.14982744 -0.071598954 0.036998853 0.07984367
-0.14547491 0.05167304 0.12422939 0.0021547824 0.13059403 -0.010274097 0.03418334 -0.012364
-0.11248659 0.0146820545 0.13468008 0.074377224 0.10313819 0.021731481 -0.11741407 -0.0026838481
-0.1522335 0.1413915 -0.13431056 0.04045257 0.1096002 0.13923822 0.05079119 0.029290646
-0.060750954 0.15651901 0.07670219 0.15242402 0.045980483 -0.1070382 0.09167503 -0.08789407
-0.13555819 0.092667796 -0.08668271 0.09954314 0.12791313 0.088105634 0.025635272 -0.039245695
0.023957714 0.113845095 -0.12481001 0.0551853 0.052375272 0.01778087 -0.072023384 -0.1358059
00000000: 1877 c53c f6aa bbbd f188 17be 4e65 c9bd
00000010: 4b61 d8bd 62e5 d23d ef99 093e 4d42 0f3a
00000020: 1b1a 91bd 5744 20be bbc4 0fbe 3ef5 d93d
00000030: ba2a 1fbe a6dd b73d f8ae 8d3d 44e7 11be
00000040: d432 04be e5f2 153e 6cef 23bd 3230 c93d
00000050: 2cbe 643d 5e60 f33d 9283 c5bd a0a9 e6bb
00000060: e8b2 ccbc 32fd cc3d f95f 93bd 78d9 12be
00000070: 923a f63d 13cc 32bc 5aaa e73d d74e 243e
00000080: d0ca 8e3d b3f9 f4bd 40f5 563c 212e e93d
00000090: e8c0 2ebd 1043 423d f34b 153e dd64 bebd
000000a0: d966 cc3d c248 e4bd 005e e0b9 166f 993d
000000b0: bc5d e0bd 6aaf f63d d685 ed3d 70bf c8bc
000000c0: 5a1c cebd 207c ab3c 0662 b83d 70ad a0bc
000000d0: 60e3 a63b 4a9c a13d 42c0 d13d 00a2 003d
000000e0: f2d4 74bd 00a6 e7bc e4d9 16be 509e 45bd
000000f0: b55f 183e 50fd 03be 251a 99bd 78f1 ab3d
00000100: a99b 2f3b 0e22 81bd 06c9 04be 12b6 c4bd
00000110: 683f 343d ea8a c33d 5012 2b3d 520f f73d
00000120: 3543 e3bd 26b4 d23d 2a9c 92bd b420 d93d
00000130: 540b 8abd 9d2b 1c3e bc9f cebd be42 0fbe
00000140: 18ce d0bd a7cf 033e 6828 ebbc 802d 283b
00000150: 6c52 2dbd d0c8 1abd d64f 90bd fa00 f1bd
00000160: 75b4 1b3e 1f0c 9fbd f0c6 98bc c8f9 aa3d
00000170: 5dad 213e 7e4d 803d 067f 903d fb90 07be
00000180: 20f1 0c3c 0e5d d33d 989e e53c 67fc c4bd
00000190: 36fa da3d 80aa 5d3b c03f 813c 7ef1 3e3d
000001a0: 0486 f1bd 97f5 173e 18c2 b4bc 8134 223e
000001b0: fc84 8dbd 2782 0b3e b6e8 e93d b457 14be
000001c0: af5a 27be 625b ff3d 1c3a 20bd a03f 8d3d
000001d0: 6c72 383d a866 763d f8bb 733d 3216 e4bd
000001e0: 8826 813c e092 533d c842 ed3c 0769 08be
000001f0: d0cd 963c cfe8 f0bd daf3 b5bd 8060 273d
00000200: 54f4 66bd 7a54 60bd d829 e0bc 1188 93bd
00000210: c6f2 ba3d 4a90 d1bd d36b 033e 0002 2ebd
00000220: 13ce 14be 2820 b4bd f63b b23d 7681 e13d
00000230: 4797 e6bd 229a f33d b0cb 06be b83d d3bc
00000240: 440d 783d 97d5 81bd 931d 143e 201e 983c
00000250: da26 1ebc 866a 23bd 1cd1 843d de08 a33d
00000260: 2cbd 0fbd bc6a eabd 25f8 013e cef4 e03d
00000270: 205d 303d 9402 233d 3088 cb3d a0e8 2a3c
00000280: 2bfe 053e 189e 193d b00d 49bd 9ea0 c93d
00000290: 2231 e63d 4040 a13c e0b5 653c ae53 fa3d
000002a0: 1c68 81bd dd93 76bc 8df5 043c ec57 ae3d
000002b0: c13d 69bd 9e85 b43d f620 10bd 5f15 183e
000002c0: 0956 093e 402c 2a3c 38a1 083d a815 1abe
000002d0: 1a52 cb3d a079 4bbc 0c63 3dbd 428d 8f3d
000002e0: 8eae 8ebd 4501 05bb 7bfc 213e 00f0 8f3d
000002f0: f3cb 0bbe b0b1 113c 50cd 8ebc 6c70 08be
00000300: 8310 963c 7e80 e43d 640f cebd 54f5 4a3d
00000310: 40d4 d83c ae0b cabd a2b5 6cbd 5aa6 fb3d
00000320: 3fe5 26be 198c e6bd c74b 253e 1669 f33d
00000330: 5d6c 193e 79a2 92bd 1c8c 173d 1485 a33d
00000340: 60f7 14be 1ca7 533d fa6b fe3d 4037 0d3b
00000350: 71ba 053e b054 28bc d403 0c3d 6092 4abc
00000360: 5f5f e6bd 008d 703c 93e9 093e 1653 983d
00000370: 1e3a d33d 3806 b23c ca76 f0bd 80e3 2fbb
00000380: 19e3 1bbe efc8 103e b588 09be 98b1 253d
00000390: 1276 e03d 7794 0e3e 6c0a 503d f0f2 ef3c
000003a0: fed5 78bd 8546 203e 0a16 9d3d 0b15 1c3e
000003b0: 0856 3c3d d836 dbbd 1ec0 bb3d ce01 b4bd
000003c0: c4cf 0abe 9dc8 bd3d b486 b1bd 46dd cb3d
000003d0: a9fb 023e ba70 b43d 1001 d23c 18c0 20bd
000003e0: f842 c43c 9e27 e93d 649c ffbd fb09 623d
000003f0: 7487 563d 30a9 913c ff80 93bd b410 0bbe

layer_5.weight f4 [128, 256]
3.7245452e-05 -0.043766305 0.0136847645 -0.034722812 0.018091917 0.050272837 0.002242431 -0.033470303
-0.003185317 0.060075037 -0.010156818 0.008021176 -0.0061279833 0.034038864 -0.0014397502 -0.0042317514
0.027848624 -0.008854218 0.0013380796 0.0014617878 -0.020281896 0.0066696703 -0.05166232 -0.024067804
-0.018203542 0.036231354 0.0076511465 -0.049961567 0.0021852627 -0.022794515 -0.03910336 -0.03941515
-0.05181402 0.007813901 0.0466133 0.037179515 -0.052939616 0.05646108 0.032276824 -0.055557836
0.033775255 0.04548628 -0.054083116 0.009067565 -0.004990816 0.053967115 0.02746147 0.018291503
-0.014717914 0.053575955 0.031454895 -0.029542327 -0.044882886 -0.012531258 -0.05069627 0.04063192
0.03523819 -0.011474508 -0.0007912591 0.021686126 -0.049959637 -0.01883322 0.05567471 0.04874514
0.019608594 -0.03709457 0.034886412 0.008469574 0.006002918 -0.021044396 0.038932055 -0.022623353
-0.05411064 -0.026490286 -0.022099756 -0.009754099 -0.014278784 -0.023595907 0.059009932 0.047280736
0.05367452 -0.03539657 -0.019683838 -0.054098263 0.037147924 0.029079303 -0.045748033 -0.017123409
-0.050752148 0.00045324117 0.038097173 0.039488338 0.012819894 0.019095503 0.030752547 0.028375775
-0.034461908 -0.047093865 0.013405614 -0.013165812 -0.01941406 0.040290475 0.0052861124 0.05745081
-0.04616537 0.014922887 0.03376513 0.054816492 -0.056126945 0.044819094 0.013766825 -0.053211115
-0.0365087 -0.0123640075 0.041170932 0.02305901 0.014912106 -0.0136530325 0.023758747 -0.032783553
-0.049939 -0.014447778 0.0068981624 -0.0029539242 0.020340368 0.051351927 0.024734132 -0.03437615
0.06032254 0.04216317 -0.051552407 0.03208618 -0.012764446 -0.047433525 0.0040501803 -0.031110711
-0.0430705 0.03575766 0.010042115 0.04472857 -0.04525584 0.0614281 -0.01792112 0.049717285
0.033231042 0.014151692 0.055349216 -0.04106254 0.061290167 -0.046841994 0.059222363 0.0007870421
0.058809273 -0.05373334 -0.060096778 -0.053803198 0.007651657 -0.053644158 -0.014000528 0.041634254
-0.031896718 0.0025352687 -0.016528651 -0.029703788 -0.02702903 -0.056903504 0.017238624 0.040706046
-0.027968407 -0.035074145 0.0031915084 -0.006616436 0.06163037 0.057057813 0.03429401 -0.010922752
-0.020103619 0.00839857 -0.059779264 0.008932129 -0.011819102 -0.058279097 0.022954604 -0.039986968
-0.009027705 -0.019545197 -0.054491147 0.0025399998 0.035021573 -0.045864504 -0.00613378 0.01670377
-0.05500836 0.048611686 -0.045801174 -0.00018303841 0.03617067 0.017453596 -0.033373445 -0.0147513
0.030163134 0.01826547 0.0053296015 -0.01254344 0.016147144 -0.035116903 0.014762826 -0.060103662
0.035102002 -0.059373796 0.044642594 -0.061869413 -0.039030448 -0.059556834 0.037085183 0.05148498
0.0029731244 -0.03404274 -0.017701894 0.04785145 0.029659249 0.040915392 0.019058838 0.02640006
0.00056937337 0.021935284 0.05607938 0.0017298162 0.04363683 -0.023089 -0.0533553 -0.035963632
0.026594266 0.0020033792 0.0428209 0.016884461 0.059337758 0.05184634 -0.014672711 -0.034580454
0.0055541173 0.047396384 -0.033101924 -0.010434553 -0.03280186 -0.044358075 0.059240155 0.01577656
0.0062603354 0.02399956 0.042925864 0.027778223 -0.032221004 0.002701819 -0.03985779 0.0054757893
00000000: 0038 1c38 4c44 33bd 1036 603c 8239 0ebd
00000010: 8035 943c e4ea 4d3d c0f5 123b 2818 09bd
00000020: c0c0 50bb 3e11 763d c868 26bc 406b 033c
00000030: 40cd c8bb 566c 0b3d 00b6 bcba 81aa 8abb
00000040: cc22 e43c 4811 11bc 8062 af3a 7699 bf3a
00000050: 3826 a6bc 408d da3b de9b 53bd d829 c5bc
00000060: 981f 95bc 5467 143d 78b6 fa3b 80a4 4cbd
00000070: a036 0f3b 90bb babc d82a 20bd c871 21bd
00000080: f03a 54bd e005 003c 96ed 3e3d 8c49 183d
00000090: 36d7 58bd bc43 673d b434 043d 9d90 63bd
000000a0: ec57 0a3d d24f 3a3d 4286 5dbd 2090 143c
000000b0: 008a a3bb 9f0c 5d3d e0f6 e03c 10d8 953c
000000c0: 6823 71bc 7672 5b3d d9d6 003d c002 f2bc
000000d0: 1ed7 37bd e84f 4dbc e4a6 4fbd a86d 263d
000000e0: ec55 103d 93ff 3bbc 806c 4fba 1aa7 b13c
000000f0: 7aa2 4cbd 2048 9abc 2a0b 643d fca8 473d
00000100: 34a2 a03c 7af0 17bd 0ee5 0e3d f8c3 0a3c
00000110: 20b4 c43b 4c65 acbc 3877 1f3d 9c54 b9bc
00000120: 1ea3 5dbd 2802 d9bc 8c0a b5bc a8cf 1fbc
00000130: 90f1 69bc 344c c1bc 66b4 713d 72a9 413d
00000140: d0d9 5b3d fefb 10bd 0040 a1bc 2496 5dbd
00000150: 6c28 183d b837 ee3c 4a62 3bbd 6446 8cbc
00000160: 7ce1 4fbd 00a1 ed39 c80b 1c3d 86be 213d
00000170: 880a 523c 2c6e 9c3c c4ec fb3c 5074 e83c
00000180: ee27 0dbd 7fe5 40bd 38a3 5b3c 6bb5 57bc
00000190: 3c0a 9fbc a007 253d 2037 ad3b 8a51 6b3d
000001a0: e617 3dbd 207f 743c 4e4d 0a3d 4287 603d
000001b0: 5ee5 65bd 3a94 373d 408e 613c e6f3 59bd
000001c0: 268a 15bd 6892 4abc daa2 283d 40e6 bc3c
000001d0: e851 743c f8b0 5fbc b4a1 c23c 0c48 06bd
000001e0: d68c 4cbd 60b6 6cbc fb09 e23b a096 41bb
000001f0: d8a0 a63c 6656 523d 3c9f ca3c 02ce 0cbd
00000200: c514 773d 4ab3 2c3d 9e28 53bd cc6c 033d
00000210: f821 51bc a849 42bd 60b7 843b e4db febc
00000220: b16a 30bd a076 123d af87 243c 4e35 373d
00000230: 305e 39bd 089c 7b3d 50cf 92bc 5aa4 4b3d
00000240: 461d 083d 80dc 673c dcb5 623d 3231 28bd
00000250: 660b 7b3d 64dd 3fbd 2693 723d 8051 4e3a
00000260: fee1 703d 7e17 5cbd 0a28 76bd be60 5cbd
00000270: c0ba fa3b fab9 5bbd 7862 65bc ae88 2a3d
00000280: 22a6 02bd c026 263b 1867 87bc 5c55 f3bc
00000290: fc6b ddbc a613 69bd 0438 8d3c 62bb 263d
000002a0: 001e e5bc e8a9 0fbd a028 513b b0ce d8bb
000002b0: 2070 7c3d 74b5 693d e077 0c3d 58f5 32bc
000002c0: 58b0 a4bc 289a 093c 1adb 74bd 1058 123c
000002d0: e8a4 41bc 10b6 6ebd 4b0b bc3c 60c9 23bd
000002e0: f0e8 13bc 401d a0bc 1c32 5fbd 2076 263b
000002f0: c872 0f3d 6bdc 3bbd e0fd c8bb 58d6 883c
00000300: 7250 61bd 0c1d 473d 039a 3bbd 00ee 3fb9
00000310: b227 143d d8fa 8e3c 98b2 08bd 70af 71bc
00000320: ad18 f73c 78a1 953c f0a3 ae3b 0083 4dbc
00000330: 0447 843c bed6 0fbd c8df 713c 422f 76bd
00000340: 1ec7 0f3d f031 73bd 27db 363d c86a 7dbd
00000350: 64de 1fbd def1 73bd a2e6 173d eae1 523d
00000360: c0d8 423b 6670 0bbd 9003 91bc e2ff 433d
00000370: f4f7 f23c e696 273d 4821 9c3c f044 d83c
00000380: 0042 153a a0b1 b33c 7eb3 653d 00bb e23a
00000390: 88bc 323d 2425 bdbc 168b 5abd 9a4e 13bd
000003a0: 38dc d93c 204b 033b f864 2f3d 4851 8a3c
000003b0: 260c 733d d45c 543d cf65 70bc 3ca4 0dbd
000003c0: 50ff b53b b622 423d e295 07bd b0f5 2abc
000003d0: 3e5b 06bd d0b0 35bd cea5 723d d83d 813c
000003e0: 8023 cd3b ba9a c43c 08d3 2f3d 288f e33c
000003f0: 2cfa 03bd 0011 313b ec41 23bd 406e b33b

layer_5.bias f4 [128]
-0.016931966 0.029266305 0.035718746 -0.017920084 0.035419717 -0.05278097 0.024545323 -0.031212993
0.015934452 -0.050659016 0.061952636 0.061490998 0.034140863 0.03014402 0.037904955 0.05169694
-0.020541526 0.027922794 -0.058445267 -0.022598393 -0.0017830282 -0.029631041 0.03846299 0.04699777
0.024310783 -0.026858822 -0.016865797 -0.023680627 -0.0068500787 0.042373862 0.033322245 0.04173802
-0.044844083 -0.045189515 -0.007696204 -0.05368399 0.023407526 -0.015065734 -0.015468329 -0.047465354
-0.040459037 -0.013801913 0.025109712 0.014717102 -0.043839104 0.03238929 -0.041898474 0.038239047
0.004425846 0.00036222488 0.026264824 0.017068297 0.04091662 -0.024156265 0.029290363 -0.03316301
-0.01184158 0.009538263 0.057278052 0.02119036 -0.036575504 0.0073029622 0.04651302 -0.044150848
-0.04958985 -0.025231116 0.058725446 -0.03395708 -0.05714483 0.008820914 -0.015869401 0.024473391
0.0444533 0.02032824 -0.05470957 -0.021914266 0.061149925 -0.046420775 -0.0061605945 0.0320584
0.05017543 -0.011974946 -0.015080653 0.0032429248 -0.026909247 0.059760675 0.05496382 -0.002961062
-0.039010696 -0.007841617 -0.030547664 -0.055870004 -0.0020639673 -0.00081783533 0.0026580468 -0.011836253
0.019819878 0.0036274716 0.016578823 0.05939006 0.03143627 0.047754645 0.037154663 0.039083175
0.045954145 0.029832646 0.0005052909 0.011845753 0.054302715 -0.0047298893 0.05361893 0.051088072
0.016607158 0.030381404 0.05782388 0.05505119 0.024877913 0.010521546 0.0062350524 -0.019725338
0.0023499206 -0.027022673 -0.03253433 -0.024178416 0.036760844 0.0005666986 -0.05059655 0.036018435
00000000: e8b4 8abc e4bf ef3c d24d 123d 24cd 92bc
00000010: 4414 113d dc30 58bd 4613 c93c 64b2 ffbc
00000020: f888 823c d47f 4fbd 0cc2 7d3d fcdd 7b3d
00000030: 4ad7 0b3d 98f0 f63c 3a42 1b3d 2cc0 533d
00000040: b446 a8bc 58be e43c 4e64 6fbd 4420 b9bc
00000050: 80b4 e9ba ccbc f2bc 5e8b 1d3d bc80 403d
00000060: 6827 c73c 0807 dcbc 242a 8abc e0fd c1bc
00000070: a076 e0bb 3790 2d3d e87c 083d 7cf5 2a3d
00000080: 6eae 37bd a418 39bd 7030 fcbb bee3 5bbd
00000090: 24c1 bf3c 45d6 76bc e06e 7dbc 086b 42bd
000000a0: 60b8 25bd 6b21 62bc e2b2 cd3c 0020 713c
000000b0: a290 33bd a2aa 043d bc9d 2bbd 8ca0 1c3d
000000c0: b006 913b 00e9 bd39 5429 d73c d0d2 8b3c
000000d0: 3098 273d 5ce3 c5bc 58f2 ef3c f0d5 07bd
000000e0: 3003 42bc 6046 1c3c 649c 6a3d 6897 ad3c
000000f0: 32d0 15bd b04d ef3b 7084 3e3d 85d7 34bd
00000100: ba1e 4bbd 7cb1 cebc 188a 703d 9416 0bbd
00000110: b210 6abd 9885 103c 8c00 82bc 6c7c c83c
00000120: aa14 363d 6987 a63c 2417 60bd 8c85 b3bc
00000130: 5878 7a3d b623 3ebd d0de c9bb ab4f 033d
00000140: c084 4d3d 9032 44bc d814 77bc 4087 543b
00000150: c870 dcbc 9cc7 743d be21 613d 600e 42bb
00000160: aec9 1fbd 207a 00bc 183f fabc f2d7 64bd
00000170: a043 07bb 0064 56ba a032 2e3b d8ec 41bc
00000180: 4c5d a23c e0ba 6d3b 50d0 873c fe42 733d
00000190: 51c3 003d 609a 433d 7d2f 183d ae15 203d
000001a0: 6a3a 3c3d 9863 f43c 8075 043a b014 423c
000001b0: 866c 5e3d 30fd 9abb 869f 5b3d ba41 513d
000001c0: bc0b 883c 6ce2 f83c bcd8 6c3d 5b7d 613d
000001d0: c4cc cb3c 9062 2c3c 694f cc3b 0897 a1bc
000001e0: 2001 1a3b a75e ddbc b842 05bd d011 c6bc
000001f0: 8a92 163d 808e 143a 543e 4fbd 1188 133d
