td3_checkpoint_actor.pth (torch, 542763 bytes, 6 tensors)

layer_1.weight f4 [400, 33]
000000 9f 97 b5 be 47 f2 2d be 9e 65 0a 3d 91 af c8 3e
       -0.3546724 -0.16986953 0.033788316 0.39196447
000010 80 46 c2 bf 71 51 79 3e 09 bf 93 3e 84 fd 5a 3e
       -1.5177765 0.24347474 0.28856686 0.21385771
000020 40 8d b7 3e 3f e6 b4 be 49 94 95 3e a7 b1 d5 bc
       0.35849953 -0.35331914 0.29214695 -0.026085688
000030 92 81 4e 3e 5f 3c 44 3d 14 70 05 3f c3 4c 94 be
       0.20166615 0.047909137 0.5212414 -0.28964815
000040 e3 26 94 3d 6e 80 e8 3f 99 d6 83 be 1f d8 83 3e
       0.072339796 1.8164194 -0.25749663 0.25750825
000050 e9 42 04 be 23 87 90 be 17 06 62 be b0 4a a7 bc
       -0.12916149 -0.282281 -0.22072636 -0.020421356
000060 8e f0 4f 3e 50 6d fc bc c4 17 d3 3e 2b 28 8f 3e
       0.20306608 -0.030813843 0.4122907 0.27960333
000070 f7 d8 d3 3d 2c 0f 30 be 28 81 68 be 2c 6c 17 be
       0.10344117 -0.17193288 -0.22705519 -0.14787358
000080 39 b6 97 3f 46 4f a3 be b3 74 28 be 2c ce da bd
       1.1852485 -0.31896418 -0.16450767 -0.106838554
000090 5f 57 ba be 46 d8 5a bf 0a be 2b 3f 87 a9 ab be
       -0.36394784 -0.8548626 0.6708685 -0.33527777
0000a0 69 b2 d5 be 2d 6b 66 3e b0 e8 9c be c0 ca 37 3e
       -0.4173768 0.22501822 -0.30646276 0.17948437
0000b0 eb 7a e3 3d 6f a8 0b 3c 6b 8c 42 3f 67 bc 18 3f
       0.11107429 0.008524044 0.7599551 0.5966248
0000c0 33 20 4a 3e 96 68 d3 3e 1e 7a 07 3f 85 de 60 bf
       0.19738846 0.4129073 0.5292071 -0.8783954
0000d0 23 8a d7 3f a5 f3 1e 3e 3e d9 f1 3e ec d6 c3 be
       1.6839031 0.1552263 0.47236055 -0.3824991
0000e0 aa 30 a6 3e ec 0d 4b 3d ab f2 bd 3d cb ae ab be
       0.32459003 0.049573824 0.09274801 -0.33531794
0000f0 12 02 20 3f be 5f 77 be 9c dc 5b 3d 87 8c 2c bf
       0.6250316 -0.24157616 0.053677186 -0.6740193
000100 48 7b 5a 3d c9 7a d9 3f 3e 72 a4 bd c0 5b a6 bd
       0.053340226 1.6990596 -0.080296025 -0.08122969
000110 03 ef e5 3e 31 bd 91 bd d1 c0 c8 3f 32 31 06 bf
       0.44908914 -0.071161635 1.5683843 -0.52418816
000120 90 47 4a bc 62 98 9b bd 76 fe 34 3e 60 b0 9f be
       -0.012346163 -0.07597424 0.17675194 -0.3118925
000130 aa 1d ad be c7 9d b1 be cf 22 36 bd 41 23 4f 3e
       -0.33811694 -0.34690687 -0.04446679 0.20228292
000140 56 6b 4e 3e 62 8d b1 be df a4 97 bf 95 bf 00 be
       0.20158133 -0.3467818 -1.184719 -0.12573083
000150 23 d3 e1 3d b4 ec 64 3e 31 34 04 3d 2a fb 40 bd
       0.11026599 0.2235592 0.032276336 -0.04711453
000160 96 d1 de be 50 99 40 3d 7d 0f 0e 3d 9b 9f c5 bd
       -0.43519276 0.04702121 0.03468274 -0.09649583
000170 25 08 b9 3e d0 06 76 3f c7 20 c2 3c 75 54 be bd
       0.36139026 0.96104145 0.02369727 -0.09293453
000180 37 ed 2e bf ca 98 70 bd 82 eb 6c bf 38 8c d1 be
       -0.6833071 -0.05873946 -0.92546856 -0.4092729
000190 f5 b8 1e 3f be a3 fe 3e 56 6c eb 3e c4 cd 6f 3e
       0.6200097 0.497343 0.4598109 0.23418337
0001a0 6e d7 28 3f d5 19 ed bf 15 4e 50 be 59 65 ab be
       0.6595372 -1.8523508 -0.20342286 -0.3347576
0001b0 4c ef f4 3d 54 6c 07 be d7 72 7c 3e a8 97 29 3e
       0.11959705 -0.13224918 0.24653183 0.16561759
0001c0 72 fe d7 3d a8 2d 5e be 3e 2b 6e bd 8a cb ca bf
       0.105465785 -0.21697104 -0.058146708 -1.5843365
0001d0 a2 1e 9f be 9a 39 ab bf 73 2a a5 bd cd d5 ee bd
       -0.31078058 -1.3376954 -0.08064737 -0.11661873
0001e0 45 38 a5 3e 77 11 59 be 77 8e e3 bc 71 30 1e bf
       0.32269493 -0.21198069 -0.027777893 -0.61792666
0001f0 ca bd 38 3e e2 45 ce bd 09 c8 2c 3f 41 fc 82 be
       0.18041149 -0.10071923 0.6749273 -0.2558308
000200 3e 76 15 3e 7e e1 44 bf d8 5e 19 3e bb 64 86 3f
       0.14595887 -0.76906574 0.14977586 1.049949
000210 d3 bc 44 bf 1a c0 f9 3e f4 f1 ea 3e 46 92 98 bf
       -0.7685062 0.48779374 0.4588772 -1.1919639
000220 fc af ab bf 4e da c2 be 03 57 95 bf 83 74 4f 3e
       -1.3413081 -0.38057178 -1.1667179 0.2025929
000230 9e a9 1e bf 72 55 c6 be 18 8e 66 3e f3 09 02 bf
       -0.61977565 -0.38737065 0.22515142 -0.5079643
000240 c9 00 58 be c3 f1 f8 3c 4c ba 41 3f 38 70 9d 3e
       -0.2109405 0.030388718 0.7567489 0.3074968
000250 89 3d 53 3e c6 4f c2 bf 53 a3 77 3d ec 08 2b 3f
       0.20628943 -1.5180595 0.060458492 0.6681049
000260 16 2c 6e be ca 89 01 be d5 5e ba 3e 37 1f a5 3e
       -0.23259005 -0.12650219 0.36400476 0.32250378
000270 7a f4 07 3e f1 6b 8d 3b 58 93 1f 3f 5c 5b 18 3f
       0.13276854 0.004315846 0.62334204 0.59514403
000280 1d 63 89 be d9 af 1c 3d b6 b7 2a bf aa 16 1d be
       -0.2683343 0.03825364 -0.6668657 -0.15340677
000290 02 10 99 bf 16 2a 79 be 64 55 5d 3e b4 24 7f be
       -1.195801 -0.24332461 0.21614605 -0.24916345
0002a0 10 44 31 bf 07 5c 90 bf 23 5b c0 bf 44 9d 55 3f
       -0.6924448 -1.1278085 -1.5027813 0.83443093
0002b0 f9 1f df 3e c3 b5 85 bc 06 7d 7b bf 1a 2a a5 be
       0.4357908 -0.016322022 -0.98237646 -0.32258683
0002c0 14 26 e1 3d 99 32 3e be 25 fc 01 3f 7c d1 bf be
       0.10993591 -0.18573989 0.5077537 -0.3746451
0002d0 90 18 d6 bd c7 bf 8d bf 62 59 47 bf b1 38 67 bd
       -0.10453904 -1.1074151 -0.7787076 -0.05645055
0002e0 a1 af 3d bf 41 e1 66 3e db 57 3c bf 5c d1 71 be
       -0.74096113 0.22546865 -0.73571557 -0.2361502
0002f0 a8 8c 4a be 25 85 26 be 91 a1 8c 3d eb 9e 98 3d
       -0.19780219 -0.16261728 0.06866754 0.07452186
000300 8f 86 83 3f ea 77 83 3e b0 2c 8d bc 20 8a 74 bf
       1.0275439 0.25677425 -0.017233223 -0.9552326
000310 40 79 26 3b c7 af 57 bf e8 1b 6e 3d 57 56 d4 3e
       0.002540186 -0.8425259 0.058132082 0.41472122
000320 9c 8d b8 bd 3e 50 89 be 26 09 52 3f f4 ee 89 3f
       -0.09011385 -0.26819032 0.8204521 1.0776048
000330 8f d1 b3 be e1 50 fd bc 1a e7 98 be ab 6a 2b bf
       -0.35120818 -0.030922355 -0.29863816 -0.6695964
000340 7d ee a9 be cc d3 79 3d 21 23 8f 3e 82 7f 52 3e
       -0.33189765 0.060993 0.2795649 0.20556453
000350 46 98 8f 3e c0 14 fd 3e 99 b6 db bf 54 25 41 be
       0.28045863 0.49429893 -1.7165099 -0.18861896
000360 d1 25 0f bf 61 49 75 bf c0 e6 12 be 33 d2 9f 3e
       -0.5591708 -0.9581509 -0.14345837 0.31215057
000370 92 59 0c be 87 38 aa be 7d de 8a be 73 77 ef 3c
       -0.13706043 -0.33246252 -0.2712287 0.029231763
000380 eb ab 2b bf f0 b3 23 3f d6 9c da bb 08 ee 81 3d
       -0.670592 0.6394644 -0.0066715283 0.06344229
000390 5c f3 24 bf b1 ed 2f be b2 bc 11 3f c2 42 82 3e
       -0.64433837 -0.17180516 0.5692855 0.25441557
0003a0 f6 23 3d 3f 91 99 ce 3e 33 53 f9 3d b3 61 aa 3e
       0.73883 0.40351537 0.12174072 0.33277664
0003b0 9e f1 33 be 40 3f 89 bf 1d fb f0 bd e6 46 56 3f
       -0.17572638 -1.0722427 -0.11766646 0.8370193
0003c0 b0 86 08 3f c7 b4 62 3e 27 1a 11 3e 55 77 c6 bd
       0.53330517 0.22139274 0.14170133 -0.096907295
0003d0 72 9b 4a 3c bb 77 96 be 69 fb 86 bd e8 02 03 3e
       0.012366163 -0.29388222 -0.065909214 0.12794077
0003e0 22 04 68 3f 4d a9 f0 3e 8d d0 8f 3f 29 95 55 be
       0.90631306 0.47004166 1.123552 -0.20857681
0003f0 32 6e 02 3f 21 26 30 be b1 7d da 3e 95 1a 6d 3d
       0.50949395 -0.17202045 0.4267402 0.05788668

layer_1.bias f4 [400]
000000 d2 19 b8 be 82 6b e5 be 47 fa 47 bf c5 d6 22 bf
       -0.359572 -0.44808584 -0.7811627 -0.6360896
000010 0a 56 1e bf 22 8d 78 bf 92 79 f6 be df 4f 72 bf
       -0.61850035 -0.9709035 -0.48139626 -0.94653124
000020 44 b6 09 bf f9 b9 1a bf cd 53 11 bf 53 cd 9c bf
       -0.5379374 -0.6044002 -0.56768495 -1.225016
000030 5e d7 02 bf 1a 2f 6f bf ec 0e 56 bf 24 28 4f bf
       -0.51109874 -0.93431246 -0.8361652 -0.80920625
000040 94 71 1b be 52 25 65 bf 6c fa d5 be 58 b4 83 bf
       -0.15180045 -0.8951007 -0.4179262 -1.0289412
000050 db 64 11 bf 1b 43 20 bf 56 e7 06 bf 2f 33 72 bd
       -0.5679452 -0.62602395 -0.5269674 -0.059130844
000060 4c 7f 9a bf 97 c4 52 bf 63 9f 3f bf 72 c8 39 bf
       -1.2070098 -0.8233122 -0.7485258 -0.7257148
000070 f1 38 3f bf 81 1f 03 bf fd a4 3c bf 44 b8 0b bf
       -0.7469626 -0.51219946 -0.7368925 -0.5457804
000080 b4 3f 24 bf 5f 93 70 bf 77 28 7b bf 99 81 15 bf
       -0.64159703 -0.9397487 -0.9810862 -0.58400875
000090 2a d6 f0 bd 07 94 38 bf d2 85 23 bf 43 53 4c bf
       -0.117595986 -0.7210087 -0.6387607 -0.7981455
0000a0 dc 44 43 bf 95 bf 06 bf da 6e 24 bf 97 1a 09 bf
       -0.76276946 -0.5263608 -0.64231646 -0.535562
0000b0 3d cf 22 bf 40 55 1b bf 4d 28 69 bf 63 4a 44 bf
       -0.6359747 -0.60676956 -0.9107712 -0.76676005
0000c0 49 ba 86 bf 63 05 12 bf bb ac 83 bf 35 5a 5e bf
       -1.05256 -0.5703947 -1.0287088 -0.86856395
0000d0 8c c5 05 bf 59 6d 73 bf 8b b2 32 bf 63 ec 92 be
       -0.5225456 -0.95088726 -0.69803685 -0.28695974
0000e0 46 6f 1d bf 00 14 3b bf 07 f5 22 bf c1 2d 88 bf
       -0.61497915 -0.7307739 -0.6365513 -1.0638963
0000f0 4d f9 bc be 03 60 3b bf 98 6c 85 bf 8a 46 58 bf
       -0.3690895 -0.7319338 -1.0423765 -0.84482634
000100 ec b8 13 bf 84 0a 86 bf 99 72 2d bf b7 e2 a7 be
       -0.57704043 -1.0471959 -0.6775299 -0.32790157
000110 2b cc 46 be 96 a4 40 bf ef 38 07 bf 9c a9 17 bf
       -0.19413821 -0.7525114 -0.5282125 -0.5924318
000120 26 1f 1e bf 5a 13 1b bf 36 ab 45 bf e2 f4 56 bf
       -0.6176628 -0.60576403 -0.7721437 -0.8396741
000130 6d 7e 81 3c d0 9a 17 bf a1 a3 8e bf f3 60 53 bf
       0.015807355 -0.592206 -1.1143686 -0.8256981
000140 cb 41 51 bf 98 30 79 bf fe 1a 37 bf 81 29 69 bf
       -0.8174102 -0.97339773 -0.7152556 -0.91078955
000150 e2 f8 fe be f0 b1 3b bf 4e 0f 01 bf b2 81 94 bf
       -0.49799258 -0.73318386 -0.5041398 -1.160208
000160 38 af fd be ec 48 19 bf 89 c1 7d bf c4 6f d0 be
       -0.49547744 -0.59876895 -0.99123436 -0.4071027
000170 52 d5 67 bf 5f f0 60 bf e8 de 8b bf a6 20 59 bf
       -0.90559876 -0.8786678 -1.09274 -0.8481544
000180 2e d3 51 be 78 c8 e8 be 35 64 41 bf db 08 29 bf
       -0.20490715 -0.45465446 -0.7554353 -0.6602914
000190 5e 39 88 bf 6d d6 45 bf e7 c7 22 bf 3a ad 8c bf
       -1.0642507 -0.7728031 -0.63586277 -1.0990365
0001a0 f9 96 34 bf 27 3f 04 be 43 17 a1 be c2 2d a4 be
       -0.70542866 -0.12914716 -0.3146306 -0.3206616
0001b0 3b e7 1a bf 5e 63 26 bf df 5d 5e bf 68 52 42 bf
       -0.6050908 -0.6499537 -0.86861986 -0.7590699
0001c0 e5 91 47 bf 37 de 3f bf 95 8a 31 bf 0a 09 58 bf
       -0.7795699 -0.7494845 -0.69352084 -0.8438879
0001d0 80 78 16 bf 45 78 38 bf e0 ad 45 bf 4a 52 45 bf
       -0.5877762 -0.72058517 -0.7721844 -0.7707869
0001e0 d5 2a 43 bf 64 3d c1 be f5 4d 6c bf 81 11 3a bf
       -0.7623723 -0.3774215 -0.92306453 -0.7268296
0001f0 b3 28 d7 be cb 59 67 bf 7b 57 82 bf 86 66 36 bf
       -0.4202324 -0.9037139 -1.0182947 -0.7125019
000200 24 46 8b bd 89 bd 40 bf 98 b6 28 bf ed 59 e3 be
       -0.06800488 -0.7528921 -0.65903616 -0.44404545
000210 a2 8b 5c bf 51 53 3a bf ab 8a 41 bf ab 07 a3 bf
       -0.8615056 -0.7278338 -0.75602216 -1.2736715
000220 63 19 38 bf 44 cd 22 bf ca a6 73 bf 7c c6 81 bf
       -0.7191374 -0.6359446 -0.95176375 -1.0138698
000230 59 12 5a bf 50 58 25 bf 63 25 3f bf f6 ce eb be
       -0.85184246 -0.6458788 -0.7466642 -0.46056336
000240 f9 08 47 bf 73 78 06 bf ed 24 d5 be 82 37 a1 be
       -0.77748066 -0.5252754 -0.41629735 -0.31487662
000250 e7 e8 9b bd 84 70 c4 be 4a ab f6 be 5f ed 7a bf
       -0.07612782 -0.38367093 -0.48177558 -0.9801845
000260 ac 2a 3e bf 0b 9f 95 be c0 e7 0b bf 17 4c de be
       -0.7428386 -0.29222903 -0.546505 -0.43417427
000270 2a b8 37 bf ba b2 18 bf 06 c3 40 bf 79 4f be be
       -0.7176539 -0.59647715 -0.7529758 -0.37170008
000280 a7 6f 5a bf 87 9e 50 bf 1b 20 1f bf 2a 9d 83 bf
       -0.8532662 -0.81491894 -0.62158364 -1.0282338
000290 69 86 15 bf d3 eb 15 bf 38 0a 3e bf df 88 37 bf
       -0.5840822 -0.58562964 -0.7423434 -0.71693224
0002a0 fb e2 57 bf 17 77 4d bf 01 5a 3e bf 95 49 fa bd
       -0.8433072 -0.8025984 -0.74356085 -0.12221066
0002b0 eb 3f dd be 4c db 95 be eb 0c 87 bf a1 7b 48 bf
       -0.43212828 -0.29268873 -1.0550817 -0.7831364
0002c0 ed d2 40 bf 2c ef 66 bf cd 37 65 bf de c1 30 bf
       -0.7532185 -0.902087 -0.8953827 -0.6904582
0002d0 1a 25 f9 be d3 cc 2c bf f8 e1 3a bf 9e 86 17 bf
       -0.4866112 -0.67500037 -0.7300105 -0.59189785
0002e0 46 25 60 bf 4e b9 03 bf a4 f5 13 bf 35 75 0e bf
       -0.87556875 -0.5145463 -0.5779669 -0.55647594
0002f0 10 20 69 bf 31 3b 4c bf 92 a4 57 bf 21 68 85 bf
       -0.9106455 -0.7977782 -0.8423549 -1.0422403
000300 37 26 2d bf 03 fe 07 bf a8 85 84 bf 14 32 01 bf
       -0.67636436 -0.53121966 -1.0353289 -0.5046704
000310 8b ef 31 bf cd 79 03 bf 26 af 57 bf 37 85 95 be
       -0.6950614 -0.5135773 -0.8425163 -0.29203197
000320 6e 72 e9 be f4 b7 75 bf d6 de 4a bf c7 c9 2e bf
       -0.45595115 -0.95983815 -0.7924627 -0.6827664
000330 38 06 8a bf 36 91 28 bf c2 fa 09 bf 34 96 3d bf
       -1.0783148 -0.65846574 -0.5389825 -0.74057317
000340 96 2b 05 bf e6 6d bb be 40 e4 ad bf a7 50 8f bf
       -0.5201963 -0.36607283 -1.3585281 -1.1196488
000350 7e 97 86 bf 28 23 0b bf 98 9e 13 bf db fd 59 bf
       -1.0514982 -0.5435052 -0.5766387 -0.8515298
000360 e1 17 50 bf 1c c0 6a bf 05 64 0a bf 30 f7 6f bf
       -0.81286436 -0.91699386 -0.5405887 -0.93736553
000370 d6 34 88 bf 2a ca 5e bf 56 46 0d bf c5 f3 1a bf
       -1.0641124 -0.8702723 -0.5518545 -0.6052821
000380 05 88 de be 88 25 4f bf c1 80 dc be 23 94 15 bf
       -0.4346315 -0.80916643 -0.4306698 -0.58429164
000390 03 c9 bf be 0a 37 52 bf 27 5c 25 bf b5 ee 62 be
       -0.37458047 -0.8211523 -0.6459374 -0.22161372
0003a0 26 9f 03 bf 7a 1a 01 bf 51 f6 86 bf 95 74 26 bf
       -0.51414716 -0.50431025 -1.054392 -0.6502164
0003b0 21 58 97 bf 89 8a 93 3c ec 09 29 bf 37 4e 58 bf
       -1.182377 0.018010395 -0.66030765 -0.84494346
0003c0 42 6e da be 7d 33 6d bf bc c8 16 bf b0 eb d2 be
       -0.42662245 -0.9265669 -0.58900046 -0.4119544
0003d0 d8 e2 43 bf b6 bc 31 bf bb 7f e4 be 23 31 41 bf
       -0.7651801 -0.69428575 -0.446287 -0.754656
0003e0 05 9b 3c bf 91 c6 08 bf a9 14 15 bf d5 5b 1d bf
       -0.7367404 -0.5342799 -0.5823465 -0.6146825
0003f0 f5 3e 54 bf 80 e1 34 bf 9b 6c 46 bf 19 b9 09 bf
       -0.82908565 -0.70656586 -0.7750947 -0.5379806

layer_2.weight f4 [300, 400]
000000 5e a8 48 be cc 45 8d 3e 15 dc 88 3d 63 14 83 bd
       -0.19595477 0.27592313 0.06682602 -0.06400373
000010 27 c2 bc 3c a2 75 d3 be dd 32 43 be d0 6f c3 be
       0.023041798 -0.41300684 -0.19062372 -0.38171244
000020 7a 7c 9d bf 70 48 4c 3e 7b 90 a6 be 23 c8 f4 bd
       -1.2303612 0.19949508 -0.32532105 -0.119522355
000030 23 2d ff be fd 09 30 bd e0 4e d0 3e 94 00 48 be
       -0.49839124 -0.042978276 0.40685177 -0.1953147
000040 ef 59 75 be 3a ee 07 bf fd 5f 97 3d d1 23 bb bf
       -0.23960088 -0.5309788 0.07391355 -1.4620305
000050 67 0a 35 3b 13 8f 81 be 14 70 06 be 15 16 15 3f
       0.0027624608 -0.2530447 -0.13128692 0.5823682
000060 47 56 c9 be a0 6a 26 3c 3d b8 da bd 19 fc ec 3d
       -0.39323637 0.010157257 -0.10679672 0.11571521
000070 7c eb 5d bf 2c 09 22 bc 0f 6a 9d bd a1 ea 9e 3e
       -0.86687446 -0.009889882 -0.07686245 0.31038383
000080 d0 f3 fd 3e 89 98 1a 3f 30 53 84 be a6 33 04 3e
       0.49600077 0.60389 -0.25844717 0.12910327
000090 0c 6e 78 bf 5c 78 08 3c 77 6b f7 bd 9a 55 75 be
       -0.9704292 0.008329477 -0.12081044 -0.23958436
0000a0 08 8f 99 3d 90 1f e3 3e b6 dd d6 be a7 67 22 bf
       0.07497984 0.44360018 -0.41966027 -0.6343941
0000b0 3c 3b 30 3e c4 7d 21 3f 8b c8 3d 3f dc 48 43 3e
       0.17210096 0.6308253 0.7413413 0.19070762
0000c0 0d 27 df 3e 8f c0 c1 bf 2d 93 cf bc fb 9c 42 3e
       0.4358448 -1.5136889 -0.025338734 0.19005196
0000d0 a0 24 ef be dd fd a8 3b 84 ba 1d 3d 2d cd a8 be
       -0.4670763 0.005157216 0.038507953 -0.32969037
0000e0 4f 9a 6f 3e e2 c6 22 3e 40 2d 1a bc 37 74 39 3e
       0.23398708 0.1589618 -0.0094102025 0.18110739
0000f0 b1 d8 a5 3e fc 93 67 be ad 5a 5a be 5c 91 37 bf
       0.32391885 -0.22615045 -0.21323653 -0.71706176
000100 b2 45 97 3e b5 95 4e bf cb 11 af 3c 37 03 98 3e
       0.2954536 -0.80697185 0.021370789 0.29689953
000110 fe 60 62 3c eb 26 3e bf 78 6d e9 be e9 aa 7e bf
       0.01381707 -0.74278134 -0.4559133 -0.9947954
000120 b0 ae 8a bf d8 df 24 bf 2e df 3c 3e 05 9a d9 bd
       -1.083456 -0.6440406 0.18444511 -0.1062508
000130 04 69 3e be a3 0f 89 bd 2c f4 b8 be de 81 2e 3e
       -0.18594748 -0.066924356 -0.36123788 0.17041728
000140 bf cf 3c bf 4d 2e ac 3e 77 7d 17 3f a1 87 6b bd
       -0.73754495 0.33629075 0.5917582 -0.057502393
000150 75 c1 d3 be be aa fe 3d 5e b7 12 bf 2f 06 00 3f
       -0.41358534 0.1243491 -0.57311046 0.50009435
000160 93 b7 8a bf 38 7c 24 bf bd 67 0b be b5 26 ee 3e
       -1.0837272 -0.6425204 -0.13613792 0.46513906
000170 56 28 fc be 2a 14 69 bd c8 65 e8 be 10 59 e7 3e
       -0.49249524 -0.056903996 -0.45390153 0.45185137
000180 4e a0 73 3e fd 38 91 bf 9c 0f d8 3e e2 7a 8a 3f
       0.2379162 -1.1345516 0.4219941 1.0818751
000190 3e bf 23 3d 3b 54 ba 3e 38 41 68 be 58 3e 87 be
       0.039977305 0.36392388 -0.22681129 -0.26414752
0001a0 b9 80 20 bf 41 14 f6 be b6 24 e6 bd f8 64 71 3f
       -0.62696415 -0.48062328 -0.11237471 0.9429469
0001b0 64 c4 96 3e 79 a8 9c 3e c1 a8 00 3f 5d 37 20 be
       0.2944671 0.30597284 0.502575 -0.1564612
0001c0 7d c9 8a be 76 de 8c be 95 22 96 3e 5b 30 19 3e
       -0.27106848 -0.27513474 0.2932326 0.14959852
0001d0 8d e3 83 3e 2a ad 5e 3d 6d 6c 7d be 25 27 88 3e
       0.25759545 0.05436436 -0.24748392 0.26592365
0001e0 85 e3 e9 be c6 0a ab 3e b5 05 bb 3e d1 cd 64 bf
       -0.45681396 0.33406657 0.36527792 -0.8937655
0001f0 76 72 b2 be 01 ed a0 bf db 0c 68 3e d0 e1 4c be
       -0.34852952 -1.2572328 0.22661154 -0.20008016
000200 1f f7 00 bc d9 0b b5 3e 11 ce bf be 51 98 ef bc
       -0.007871418 0.35360602 -0.37461904 -0.029247435
000210 96 2b 05 3f b7 56 ed be 5c 9e a6 be 0f 2f a9 be
       0.5201963 -0.4635522 -0.32542694 -0.33043715
000220 eb b3 0b be 53 62 58 bd cf 80 e7 3e 16 47 d4 3d
       -0.13642852 -0.052828144 0.4521546 0.10365121
000230 37 3d 71 3e d4 4d 05 3f 3b 1e 70 3e b9 cc ac 3e
       0.23558508 0.5207188 0.23449032 0.3374994
000240 94 38 d0 3c 68 1d 6e bd 50 84 aa be 0e 98 a0 bd
       0.025417604 -0.058133513 -0.3330407 -0.07841502
000250 b8 7d c2 be 6f 43 34 3f 20 9f f6 3e e7 6d 98 be
       -0.3798654 0.70415395 0.48168278 -0.2977135
000260 7b 5a 36 bf be 96 b4 3d ec 68 10 3e 2e bd 04 bf
       -0.7123181 0.08817814 0.14102525 -0.51851165
000270 1b 98 04 3e 27 c9 c4 3c 8a 68 c1 be a8 57 0d 3f
       0.12948649 0.024021698 -0.3777507 0.5521188
000280 d9 1d 2a 3f a6 c4 0a bf e1 ec 4a 3e 8a ee 0f 3e
       0.66451794 -0.5420631 0.19816925 0.14055839
000290 b6 8b 54 3e 79 55 e0 be 79 f6 b1 bf 3a b4 43 bd
       0.2075642 -0.4381521 -1.3903342 -0.0477793
0002a0 42 bb e5 3e e0 eb 84 3d 2b 6c d2 3e c3 fb ea 3d
       0.4486943 0.06490302 0.4109815 0.11473801
0002b0 ee 37 b1 be 88 97 9c be 33 ed 6b 3e 01 d2 4b be
       -0.34612983 -0.3058436 0.23039703 -0.19904329
0002c0 33 9c 25 3e e1 ea bf 3d 82 50 98 3d 5f 33 22 bf
       0.16172867 0.093709715 0.07437231 -0.63359636
0002d0 32 c5 0f 3e 13 95 93 bc 62 0a f5 be 5a 99 9a bf
       0.14040068 -0.01801542 -0.47859484 -1.2078049
0002e0 e4 9a 64 be 44 64 3b bf e9 13 9b bf 78 50 92 3d
       -0.22324711 -0.7319987 -1.2115451 0.071442544
0002f0 14 b2 0f 3f 0c 58 30 bf 7d 9f a1 3a 85 d2 23 3e
       0.561311 -0.6888435 0.0012330856 0.15998276
000300 21 9d 0d 3f 57 5c 0b be f7 5f 7f be 28 1d 1d be
       0.55317885 -0.13609444 -0.24938951 -0.15343153
000310 e2 67 ae 3e 0f 62 17 3e 03 78 53 3f f6 ea 1e 3e
       0.3406363 0.147835 0.82605 0.15519318
000320 4a 01 09 bf ff 2a 45 bf bf 47 24 3e 4e 27 89 3e
       -0.5351759 -0.7701873 0.16042994 0.267878
000330 5e d6 7d 3e 25 27 08 be 2a 62 97 be ca 75 c4 be
       0.24788806 -0.13296182 -0.2956708 -0.38371116
000340 0e 3a cf 3e 5c 74 84 3d b9 64 80 3e 58 ba 31 be
       0.4047398 0.06467506 0.25076845 -0.17356241
000350 b1 63 89 be 7d 10 33 bd 2e 71 cb 3c 69 23 94 3d
       -0.2683387 -0.043716896 0.024834242 0.072333165
000360 a4 f9 88 be 3a 86 41 bd 35 05 2e bf 01 67 0f bc
       -0.2675296 -0.04724715 -0.67976695 -0.008752585
000370 be 74 7e 3e 7c d9 85 be 34 60 07 3e 12 17 37 3d
       0.24849221 -0.2614249 0.13220292 0.044699736
000380 92 fe 82 bf 6e d8 cc bc 2c 13 58 3e 48 0a b0 3e
       -1.0233939 -0.025005545 0.21101063 0.34382844
000390 c4 a6 26 3d 71 b7 e5 3d a3 cf 36 3d 5c 3a 7d be
       0.040686384 0.11216629 0.04463161 -0.24729294
0003a0 40 28 1f 3f 2a c2 f4 3e 1d 4d 60 3e 13 0e 46 be
       0.6217079 0.47804385 0.21904416 -0.19341306
0003b0 62 0c 61 be ac 72 54 3e ec a3 a1 be 61 9e e8 bd
       -0.2197738 0.20746869 -0.31570375 -0.113583334
0003c0 66 41 7f be 54 c9 d0 3d 28 bb 7a 3e a3 e7 0a be
       -0.24927291 0.1019465 0.24485457 -0.13564925
0003d0 57 55 f6 be b5 d1 2b be a1 b2 01 be 0a 32 15 bf
       -0.48111984 -0.16779216 -0.12665798 -0.5827948
0003e0 dc 47 8d 3d eb 3e b3 3e 10 d2 11 bf e4 bb b5 be
       0.06898472 0.3500894 -0.56961155 -0.35494912
0003f0 4c 94 99 3e 5d 4a 35 be bd 99 eb bd 63 09 5e be
       0.29995954 -0.17704149 -0.115039326 -0.21683268

layer_2.bias f4 [300]
000000 f4 e7 24 be 4f 0e de be e6 a7 04 be 1d 71 f6 bd
       -0.16104108 -0.43370292 -0.12954673 -0.120332934
000010 19 a2 53 be 97 03 83 be ca 67 b7 be df 02 a4 bd
       -0.20667304 -0.25588676 -0.35821372 -0.0800836
000020 26 c9 aa bd 9e ff c2 be 52 3d fa be 48 3e 24 be
       -0.08339147 -0.38085645 -0.4887491 -0.16039383
000030 23 c5 07 be ce e7 b2 be 76 b6 a4 be 92 32 a1 be
       -0.13258795 -0.34942478 -0.32170457 -0.31483895
000040 21 b6 49 be 00 4a 05 bf 4c 2f a3 be fc 25 19 bf
       -0.19698383 -0.5206604 -0.31872022 -0.59823585
000050 e3 fe 1a bf 39 ef 0e bf 7d d3 c7 3d d7 fb 44 be
       -0.60545176 -0.55833775 0.09757135 -0.19236694
000060 a9 85 da bd 3d 43 04 be e8 77 54 bf 02 a4 0e be
       -0.10670025 -0.12916274 -0.8299546 -0.13929752
000070 e5 fd df bd ec ad 4b be bf 6c 04 3d 9d 8c ad be
       -0.109370984 -0.19890565 0.03233027 -0.33896342
000080 ac 64 5a be 59 7a 37 bf 96 83 25 be 38 b6 7b be
       -0.21327466 -0.7167106 -0.16163477 -0.2458123
000090 a9 30 b4 be 88 e6 81 be 6c 6e 83 be 8a 89 c8 be
       -0.35193375 -0.25371194 -0.25670183 -0.39167434
0000a0 59 30 99 be 36 2b 8a be f2 90 af be d6 28 2c bd
       -0.299197 -0.26986092 -0.34290272 -0.04203113
0000b0 22 d1 dc be 89 11 43 be ed 6f d1 bc 75 3b 0d 3e
       -0.43128306 -0.19049658 -0.025566066 0.13792212
0000c0 1a e1 9d be 65 c4 18 bf 77 ea 95 be 8d 14 74 be
       -0.308358 -0.59674674 -0.29280445 -0.23835965
0000d0 f2 43 90 be 23 63 d1 be 16 67 61 be 84 7c 1c bf
       -0.28176838 -0.40895948 -0.2201198 -0.61127496
0000e0 f9 20 41 bd 3c 13 e4 bd 8d 5b d5 bd 19 c0 f8 be
       -0.047150586 -0.11136481 -0.104178526 -0.4858406
0000f0 a6 9d 54 be 04 2d 37 bd 65 02 9d be cd ca 19 be
       -0.20763263 -0.044720665 -0.3066589 -0.15018769
000100 4c af 20 bc c9 2d 62 be 83 8a 1a bf 19 17 78 bd
       -0.009807419 -0.22087778 -0.603676 -0.060568903
000110 47 39 59 be b8 71 33 bf 4e ff e4 be 77 07 bb be
       -0.21213256 -0.70095396 -0.44726032 -0.36529133
000120 b0 37 3f bf 1d e5 78 be e8 c1 11 bf 89 2d 0d bf
       -0.7469435 -0.2430615 -0.569365 -0.55147606
000130 e4 d5 29 be 8e d7 6e be 63 c6 ae be 0d 58 da be
       -0.16585499 -0.23324415 -0.34135732 -0.42645302
000140 1e 92 c6 be fb a3 1f bf b0 b4 02 bf e4 f4 b3 bc
       -0.38783354 -0.6235959 -0.5105696 -0.021967359
000150 95 24 8e be 89 c6 06 bd 3d 81 28 bf 63 6d 00 bf
       -0.27762285 -0.03290418 -0.658222 -0.5016691
000160 7d 88 d1 bd 2b 57 67 be 2a 67 a9 be 71 8f 4d bf
       -0.10231111 -0.22591846 -0.3308652 -0.80297
000170 1a 6d e2 be ba a6 8a be 3c ff 38 be ec 43 15 bf
       -0.44223863 -0.27080327 -0.18066114 -0.58306766
000180 b0 06 ee bd 4e 7d cb be c5 8a 23 be d4 e5 20 be
       -0.11622369 -0.39744037 -0.15970905 -0.15712672
000190 5a 63 38 3e 70 fe 11 be 12 5c 62 be af b8 41 be
       0.1800665 -0.14257216 -0.22105435 -0.18918107
0001a0 7a e1 e2 bd 4a c6 ee be 7e c1 26 3d cf 8b ed bd
       -0.110781625 -0.46635658 0.040711872 -0.11598932
0001b0 16 28 4b be be a2 db be 0a f3 c3 be 81 cd 16 be
       -0.1983951 -0.428976 -0.38271362 -0.14726831
0001c0 ce a6 bf bd 59 9d 0a bf 78 1c 9b 3d 78 fa a4 be
       -0.09357987 -0.54146343 0.07573789 -0.32222342
0001d0 3d 9e 8e bd 44 ec 10 bf 7e 63 9d be 8f 67 25 bf
       -0.06963775 -0.5661051 -0.3073997 -0.6461114
0001e0 af 91 c5 be c4 eb 23 be ed 3c 7b bf 79 3b 96 be
       -0.3858771 -0.16007906 -0.9813984 -0.2934225
0001f0 0e 07 b8 be 36 71 11 bf 18 fd 8f be 8e 41 97 be
       -0.35942882 -0.5681337 -0.28122783 -0.29542202
000200 33 b6 3f be ba 57 a2 be 06 d6 28 be 91 38 9d bc
       -0.18721847 -0.31707555 -0.16487893 -0.019192012
000210 30 a9 37 bf 29 69 35 be e4 6b c2 be 95 85 b4 bd
       -0.71742535 -0.17715897 -0.3797294 -0.08814541
000220 c3 bb d2 be 56 d8 04 bf 28 c0 e2 be 86 16 5c bd
       -0.41158876 -0.518926 -0.4428723 -0.053732418
000230 8b 46 81 be 20 41 e1 ba 63 b9 3e bf 6b f9 62 3d
       -0.25249133 -0.0017185546 -0.7450163 0.055413645
000240 b6 a3 39 be 38 51 9d be 42 61 0d bf 59 ae d0 be
       -0.18128857 -0.30726027 -0.5522653 -0.40758017
000250 38 5b 79 bf 1f 98 aa be 50 62 d6 be 15 ad 32 be
       -0.97404814 -0.33319184 -0.4187188 -0.17448838
000260 f5 d5 e4 be 93 ed 5d be 20 14 06 be e4 e9 a0 bd
       -0.44694486 -0.21672659 -0.13093615 -0.07857111
000270 0c 4c df be 55 d1 ca be 4d 87 01 bd 50 ac 95 be
       -0.43612707 -0.39612833 -0.031623174 -0.29233027
000280 ab 12 12 3e af b0 ea be 4e ae 19 bd 29 91 8f be
       0.14264934 -0.45837924 -0.037519746 -0.28040436
000290 07 1f f7 bd f7 7f a5 be 05 89 f5 be 96 a9 e1 be
       -0.12066465 -0.32324192 -0.479561 -0.44074696
0002a0 41 39 78 be 9c ff 81 be c0 39 00 bf 8a 8d 58 3d
       -0.2424059 -0.25390327 -0.5008812 0.052869357
0002b0 1e 35 c7 be 74 c2 c5 be 6f f7 d3 3d 53 66 df be
       -0.38907713 -0.38624918 0.103499286 -0.43632755
0002c0 51 4d bc bd 9f 02 b2 be c6 59 1e bf 97 35 be bd
       -0.091944344 -0.34767625 -0.61855733 -0.09287565
0002d0 c6 13 78 be f4 b6 7d bf 16 66 1e bf bc e8 ed bd
       -0.24226293 -0.9910729 -0.6187452 -0.11616656
0002e0 d8 cd 1d be e1 91 e8 bc 03 21 53 be 17 42 ad bd
       -0.15410554 -0.028389873 -0.20618062 -0.08459871
0002f0 e4 8a af be 34 5f cd be 5e 89 20 3e 7d d9 01 bf
       -0.34285653 -0.40111697 0.15677401 -0.50722486
000300 c9 69 a5 be 17 8a 6f be 0a 82 fc be fd 40 b5 bd
       -0.3230727 -0.23392521 -0.49317962 -0.08850286
000310 65 5c 51 bd ce 82 e2 be eb ab c7 bd 46 6d 8f bc
       -0.051113505 -0.4424042 -0.097495876 -0.01750816
000320 89 e1 45 be 6b e7 b2 bc 37 87 a8 be aa 8f 79 be
       -0.19324316 -0.021838864 -0.3291566 -0.2437121
000330 b9 96 89 be 62 91 e0 be e5 11 42 be e7 20 25 3d
       -0.26872805 -0.43860918 -0.18952139 0.04031458
000340 59 ed 08 bf 07 3b ef bd 24 ef 3b bf 65 3b b5 be
       -0.53487164 -0.116811804 -0.73411775 -0.35396877
000350 5f 06 53 be 2c 59 99 be 21 af 4b be e3 2e 46 3d
       -0.20607899 -0.29950845 -0.19891025 0.04838456
000360 79 ed 92 be 63 3d c9 3d d1 93 04 bf 55 5a 00 3e
       -0.28696802 0.09826162 -0.5178805 0.12534459
000370 85 ce fc be af 82 d3 be b0 2c 8d be 50 d7 01 bf
       -0.49376312 -0.4131064 -0.27573156 -0.50719166
000380 2c fe 25 bd 9e fe 8c be fd a3 ac be 9f 39 9b be
       -0.0405256 -0.27538007 -0.33718863 -0.303174
000390 2c 2a db be d1 49 4d bf f7 fa bd bd e5 f5 d5 be
       -0.42805612 -0.8019076 -0.09276383 -0.41789165
0003a0 0a e7 43 bd 91 45 4c bd 51 67 6d bf ad cb d2 be
       -0.047827758 -0.04987103 -0.92735773 -0.41171017
0003b0 84 db d2 be 32 ec 1c bf 38 a5 e2 be 8b 50 35 bf
       -0.41183102 -0.61297905 -0.44266677 -0.70826024
0003c0 68 2e 35 3d d2 b1 a4 3c 49 ee 80 bd 77 d5 9a bd
       0.04423371 0.020104323 -0.06295449 -0.075602464
0003d0 08 5a 32 bf 14 c5 5a bf 61 82 9a be 8c 2b e5 be
       -0.69668627 -0.8545697 -0.30177596 -0.44759786
0003e0 3c 26 70 3e a6 3d d8 be 0f 0c 1c 3e 30 5f 95 be
       0.23452085 -0.42234534 0.15238975 -0.29174185
0003f0 7e 1c 28 bf f1 f2 27 bf 83 87 18 be 1e db b8 be
       -0.65668476 -0.65605074 -0.14895444 -0.36104673

layer_3.weight f4 [4, 300]
000000 f1 04 26 3f f5 3d 76 be 09 0c 3c be 8c 3b 2d 3f
       0.6485129 -0.24047072 -0.18363966 0.67668986
000010 da 7c df 3e 0c b2 ef 3e 25 70 0a 3d 73 ff 03 bc
       0.43649942 0.46815526 0.033798356 -0.008056509
000020 53 b8 b4 3e 8e f1 33 bf ff 27 cc 3d 8b 9b be 3d
       0.35296878 -0.7029046 0.09968566 0.09307011
000030 b3 4b 1e 3e 7b bf 44 bd c5 61 f8 be f1 c7 9e 3f
       0.15458564 -0.048034173 -0.48512092 1.2404767
000040 34 d4 44 3e ec 03 0b bc 6e 59 67 bd e2 c7 8d bd
       0.19221574 -0.008484822 -0.05648177 -0.0692289
000050 ca c5 b5 3e ab 23 01 bf 53 25 ac 3e 41 37 f5 3e
       0.35502464 -0.5044505 0.33622226 0.47893718
000060 05 35 49 bf ff 1a df 3e f0 10 b5 be 27 fc 22 be
       -0.78596526 0.43575284 -0.35364485 -0.15916501
000070 64 0e 54 be 92 7d 24 3f 8c 0a 51 3e 27 87 ea 3d
       -0.20708615 0.64254105 0.2041418 0.114515595
000080 cc 2c 22 bf 82 80 e3 3c d0 d5 50 3f 57 6b 47 bf
       -0.63349605 0.027771238 0.8157625 -0.7789816
000090 a8 fa b9 be d9 90 da 3e d5 06 64 bf 36 eb 9f be
       -0.36324048 0.42688635 -0.89072925 -0.3123414
0000a0 eb 63 a7 3d 71 4f a6 bf 62 94 99 bd d0 48 7c 3d
       0.08173355 -1.2992994 -0.07499005 0.061592877
0000b0 92 1f 47 bf 43 f4 70 3f b6 8f 06 bb 04 55 03 3e
       -0.7778255 0.94122714 -0.0020532436 0.128254
0000c0 ef 5c c1 bc 77 a9 23 bf 60 01 63 bd e8 00 18 3f
       -0.023603885 -0.6393046 -0.055421233 0.5937638
0000d0 fc ff b5 3e 38 f9 14 3f c9 11 47 3f e9 18 9b be
       0.35546863 0.5819278 0.77761513 -0.30292442
0000e0 a5 14 45 3f 38 2d f0 be b1 1f 09 bf 44 4f 4f 3e
       0.76984626 -0.469095 -0.5356398 0.20245081
0000f0 cc 7d 3d be c6 7c 5c bf b1 1a 1d bf 70 88 fc be
       -0.18505019 -0.8612789 -0.6136885 -0.49322844
000100 83 93 15 3d 54 89 79 be ca 5a 43 3f 87 64 20 bf
       0.03651763 -0.24368793 0.7631041 -0.6265339
000110 9a ab 1e bf 32 99 b4 be f0 ba 19 bf 9e ea 12 be
       -0.61980593 -0.3527313 -0.6005087 -0.14347312
000120 60 54 3f 3c 1c 49 3a be 3c b1 2f bd 35 42 22 bf
       0.011677831 -0.18191952 -0.042893633 -0.63382274
000130 70 02 0e bf ed 64 4b 3e a7 40 9e 3e a9 37 12 bf
       -0.5547247 0.19862719 0.309087 -0.5711618
000140 59 53 20 3f 90 9a be 3e a0 ab cd bd aa 57 dd 3e
       0.6262718 0.37227297 -0.100425005 0.43230945
000150 61 8b 3f bf 41 91 47 3e 53 1c 17 bf 95 75 f6 be
       -0.7482205 0.19489004 -0.59027594 -0.48136583
000160 64 26 a6 3e 8f ba a1 3e e9 68 9f 3b 62 c3 52 be
       0.32451165 0.31587645 0.004864801 -0.20582345
000170 0f f2 54 be b1 94 13 bf 80 34 a9 3e 10 af 02 3e
       -0.20795463 -0.5764876 0.33047867 0.12762094
000180 99 16 54 3f 88 c1 80 bf c8 07 0c 3f 68 4a 4e 3f
       0.8284698 -1.0059061 0.54699373 0.80582285
000190 2e 54 20 3e de bd a6 3e 98 d9 9f 3e 29 3e a9 3e
       0.15657112 0.32566732 0.31220698 0.33055237
0001a0 a3 62 b3 be 49 4c f2 3e 60 60 14 bf 8c 09 15 3e
       -0.3503619 0.47323826 -0.57959557 0.14554423
0001b0 25 8c 90 3d b7 1f 72 3f 80 04 b4 3c f0 0d bb be
       0.070579804 0.94579643 0.021974802 -0.3653407
0001c0 30 a6 28 be 4d 8e ae be 89 ee 75 be ae 28 56 be
       -0.16469646 -0.34092942 -0.24016775 -0.20913956
0001d0 5b 80 04 bc a2 18 29 bf f0 df 3a be ef 49 7a bd
       -0.008087243 -0.6605321 -0.18249488 -0.061105665
0001e0 2e 71 08 bf 2d e6 9e bc 0c 4e fd be 4f d8 5f 3f
       -0.532977 -0.019396866 -0.49473608 0.87439436
0001f0 ad 3c a2 3e 14 98 a6 be fc b1 0d bf 04 de 8b 3d
       0.31686917 -0.325379 -0.5534971 0.068294555
000200 4c 7d 5b 3f 3e 9e 90 3f e2 cb 5b bd dd db bf 3b
       0.8573806 1.1298292 -0.053661235 0.005855067
000210 92 18 83 3e e3 93 31 3e 5a 9b a7 bd 2f ca db 3d
       0.25604683 0.1734157 -0.08183928 0.10731923
000220 bc 51 8e bf 0d a7 8e 3f f3 05 17 bd d3 bf fd bc
       -1.1118693 1.114473 -0.036870908 -0.030975258
000230 51 7a 53 3f b0 dc 88 3e e1 68 59 3f c4 73 87 3e
       0.82608515 0.2673087 0.8492566 0.2645551
000240 04 44 29 bf 58 0d b1 3f e1 21 45 3f d9 19 0f be
       -0.6611941 1.3832197 0.7700482 -0.13974704
000250 73 4a 1b bf d4 16 5f 3f 86 b2 df bd 70 37 88 bf
       -0.60660475 0.8714421 -0.109227225 -1.0641918
000260 7c f5 b5 be 09 34 2f 3d 93 cc 85 bf 66 43 87 bc
       -0.35538852 0.042774234 -1.0453056 -0.01651163
000270 33 41 93 3e d6 93 75 bd 54 85 c9 be 47 ea 8f be
       0.2876068 -0.05995544 -0.39359534 -0.28108427
000280 a2 22 7e be 4b 51 8a 3e 0b 31 e2 3c 6f 01 a9 bd
       -0.24817899 0.27015147 0.027611276 -0.082522266
000290 41 8f 9d be 17 f3 2d be a6 c5 f4 3e 34 fe e7 be
       -0.30773357 -0.16987263 0.47807044 -0.4531113
0002a0 5d 59 18 bf 0f 68 e1 3e 51 1f dc 3d 8f ef c1 3e
       -0.5951136 0.44024703 0.10748161 0.3787808
0002b0 91 51 ce 3e 1e 32 c6 3e cc 87 a6 3d bb 0c 62 bf
       0.40296605 0.3871011 0.0813137 -0.88300675
0002c0 85 d6 18 3f 88 be c6 3e 99 07 30 bf ab b8 14 3f
       0.5970233 0.3881724 -0.68761593 0.5809428
0002d0 d8 32 2f bf fc 27 9e bf 55 e3 20 3e d1 e2 1d bf
       -0.68436956 -1.2355952 0.1571172 -0.6167422
0002e0 23 f8 fc 3d 6b 7c f6 bc db 42 ac be 5e eb 87 bc
       0.12352016 -0.030088624 -0.33644757 -0.016591724
0002f0 16 d0 84 3d 59 00 ee be 62 b7 8e bf fb 26 94 3d
       0.06485002 -0.4648464 -1.1149714 0.072339974
000300 8e e7 51 be 23 bf 43 bf d9 ce 36 3e c7 f5 2d 3d
       -0.20498487 -0.76463526 0.17852344 0.04247072
000310 81 3e 00 ba 5c 3f 4a 3f 26 98 1f be 58 8f 5e 3b
       -0.00048921263 0.7900293 -0.15585384 0.0033959951
000320 6a 13 ba be a7 0e 40 3d e2 d6 79 3e 51 31 26 bf
       -0.36342937 0.046888974 0.24398378 -0.64919
000330 0f a6 6e bf 7b eb 1a 3d 6f 98 d7 be 59 f0 40 3f
       -0.93222135 0.037822228 -0.42108485 0.7536674
000340 34 a5 74 be 93 89 3f 3f 95 e7 48 3e e5 2c f4 bd
       -0.23891145 0.74819297 0.19619592 -0.119226255
000350 76 cc 3d 3e 1b 2c 37 3e 40 01 66 bf bf fa 14 3f
       0.18535027 0.17887919 -0.8984566 0.5819511
000360 a2 37 c4 3e 0a 5b 46 3e 88 f7 a3 3f 21 02 50 3f
       0.38323694 0.19370666 1.2809916 0.8125325
000370 a8 86 df 3e af ed 98 be b9 f9 13 3e d2 14 a7 3e
       0.43657422 -0.29868838 0.1445073 0.32633072
000380 e9 b6 a2 3d 4e 99 54 3d a3 b3 cb 3e 81 5a b9 3e
       0.079450436 0.051904015 0.3978549 0.36201862
000390 45 b8 09 3f 73 c1 44 bf 37 82 4d 3f 95 4f 2c 3e
       0.537968 -0.7685768 0.8027682 0.16827233
0003a0 96 8b 24 bc 20 e4 a9 be f2 ea 98 bf 74 a1 c0 3e
       -0.0100430455 -0.33181858 -1.19467 0.3762318
0003b0 5e 27 26 bf 58 74 73 3c 81 bc 06 bf db 1e 87 be
       -0.6490382 0.0148592815 -0.52631384 -0.26390728
0003c0 44 11 89 be df 7c 3c 3f 67 16 24 bd e6 ef d3 be
       -0.26770985 0.7362804 -0.040060427 -0.41393965
0003d0 4f 40 a7 3d d4 4f 61 bf ca 3a 35 bf 40 43 08 3e
       0.08166563 -0.88012433 -0.7079283 0.13306904
0003e0 43 25 2a 3f a5 fc 87 bf d2 a8 26 3e b6 3d 53 bf
       0.66463107 -1.0623976 0.16275337 -0.8251604
0003f0 54 2a 5d bf 60 81 6c 3f ce a0 1d be 9e b4 d5 3d
       -0.8639271 0.9238491 -0.15393373 0.104348406

layer_3.bias f4 [4]
000000 d2 72 0b be 16 9a 0d 3e 28 fb ca bc 07 af 0b 3e
       -0.13618019 0.1382831 -0.024777964 0.13640986
